gensim_data_sets/weighty_weightless_A.npy (npy, 2480 bytes, 1 tensors)

array f4 [2, 300]
000000 00 00 9f 3e 00 00 2e 3e 00 00 35 be 00 00 18 3e
       0.31054688 0.16992188 -0.17675781 0.1484375
000010 00 00 d0 3d 00 00 80 be 00 00 b4 3e 00 00 24 3e
       0.1015625 -0.25 0.3515625 0.16015625
000020 00 00 90 3d 00 00 87 3d 00 00 46 bd 00 00 04 3e
       0.0703125 0.06591797 -0.048339844 0.12890625
000030 00 00 4c 3e 00 00 6f 3e 00 00 94 3d 00 00 35 3d
       0.19921875 0.23339844 0.072265625 0.044189453
000040 00 00 a2 3d 00 00 87 3e 00 00 a1 3d 00 00 8d 3d
       0.07910156 0.26367188 0.07861328 0.068847656
000050 00 00 57 be 00 00 35 be 00 00 d2 bd 00 00 78 3e
       -0.20996094 -0.17675781 -0.10253906 0.2421875
000060 00 00 46 bb 00 00 3f be 00 00 7f bc 00 00 10 bb
       -0.0030212402 -0.18652344 -0.015563965 -0.0021972656
000070 00 00 28 be 00 00 8e bd 00 00 ff 3d 00 00 24 3e
       -0.1640625 -0.06933594 0.12451172 0.16015625
000080 00 00 56 3e 00 00 9f 3e 00 00 38 be 00 00 36 be
       0.20898438 0.31054688 -0.1796875 -0.17773438
000090 00 00 0d 3d 00 00 54 3e 00 00 ef 3d 00 00 45 bc
       0.034423828 0.20703125 0.11669922 -0.012023926
0000a0 00 00 5a 3d 00 00 3d be 00 00 a6 3d 00 00 e0 3a
       0.053222656 -0.18457031 0.08105469 0.0017089844
0000b0 00 00 43 bc 00 00 b5 3d 00 00 28 3e 00 00 06 3e
       -0.0119018555 0.088378906 0.1640625 0.13085938
0000c0 00 00 cc 3d 00 00 e0 bd 00 00 76 be 00 00 18 3d
       0.099609375 -0.109375 -0.24023438 0.037109375
0000d0 00 00 68 be 00 00 7f bd 00 00 4a 39 00 00 87 3e
       -0.2265625 -0.06225586 0.00019264221 0.26367188
0000e0 00 00 ac 3d 00 00 b7 be 00 00 cb 3c 00 00 43 be
       0.083984375 -0.35742188 0.024780273 -0.19042969
0000f0 00 00 c1 3d 00 00 9d 3c 00 00 3e 3e 00 00 88 be
       0.09423828 0.019165039 0.18554688 -0.265625
000100 00 00 4c 3e 00 00 4e be 00 00 8e be 00 00 59 3d
       0.19921875 -0.20117188 -0.27734375 0.052978516
000110 00 00 2c be 00 00 67 3d 00 00 87 3e 00 00 b8 3c
       -0.16796875 0.056396484 0.26367188 0.022460938
000120 00 00 c3 3d 00 00 d9 3d 00 00 24 be 00 00 e4 bd
       0.095214844 0.10595703 -0.16015625 -0.111328125
000130 00 00 10 3e 00 00 e6 3e 00 00 82 3d 00 00 2c bc
       0.140625 0.44921875 0.06347656 -0.010498047
000140 00 00 30 be 00 00 ca bd 00 00 14 bd 00 00 8d be
       -0.171875 -0.09863281 -0.036132812 -0.27539062
000150 00 00 44 3d 00 00 52 be 00 00 36 be 00 00 e6 bd
       0.047851562 -0.20507812 -0.17773438 -0.11230469
000160 00 00 a1 bd 00 00 9b 3e 00 00 3b 3d 00 00 5c be
       -0.07861328 0.30273438 0.045654297 -0.21484375
000170 00 00 83 3d 00 00 5e 3d 00 00 48 bd 00 00 0a bd
       0.063964844 0.05419922 -0.048828125 -0.033691406
000180 00 00 e1 3d 00 00 d4 3d 00 00 b5 bd 00 00 be bd
       0.10986328 0.103515625 -0.088378906 -0.09277344
000190 00 00 eb 3d 00 00 96 3d 00 00 4c 3e 00 00 1c be
       0.114746094 0.07324219 0.19921875 -0.15234375
0001a0 00 00 95 be 00 00 95 bd 00 00 58 3e 00 00 4c 3d
       -0.29101562 -0.072753906 0.2109375 0.049804688
0001b0 00 00 53 3e 00 00 d3 bd 00 00 2e 3d 00 00 6b 3b
       0.20605469 -0.103027344 0.04248047 0.0035858154
0001c0 00 00 98 3e 00 00 30 3e 00 00 93 3e 00 00 c1 bd
       0.296875 0.171875 0.28710938 -0.09423828
0001d0 00 00 84 3e 00 00 86 3e 00 00 4f 3e 00 00 80 3e
       0.2578125 0.26171875 0.20214844 0.25
0001e0 00 00 66 be 00 00 80 bd 00 00 3f be 00 00 aa bd
       -0.22460938 -0.0625 -0.18652344 -0.08300781
0001f0 00 00 9c be 00 00 61 3e 00 00 5f 3c 00 00 ff 3d
       -0.3046875 0.21972656 0.01361084 0.12451172
000200 00 00 5d be 00 00 d0 3d 00 00 37 be 00 00 b6 bc
       -0.21582031 0.1015625 -0.17871094 -0.022216797
000210 00 00 73 be 00 00 7c 3e 00 00 d2 3c 00 00 83 3e
       -0.23730469 0.24609375 0.025634766 0.25585938
000220 00 00 7a 3d 00 00 ae 3d 00 00 75 bc 00 00 e5 bd
       0.061035156 0.08496094 -0.014953613 -0.111816406
000230 00 00 98 3e 00 00 de 3c 00 00 c5 bd 00 00 cb bd
       0.296875 0.02709961 -0.096191406 -0.099121094
000240 00 00 44 3c 00 00 74 be 00 00 8d be 00 00 c5 3d
       0.011962891 -0.23828125 -0.27539062 0.096191406
000250 00 00 a0 3d 00 00 a6 3e 00 00 4b 3d 00 00 8b be
       0.078125 0.32421875 0.049560547 -0.27148438
000260 00 00 0a 3c 00 00 66 3a 00 00 bf bd 00 00 b9 bd
       0.008422852 0.0008773804 -0.09326172 -0.09033203
000270 00 00 7f be 00 00 88 bd 00 00 dd bd 00 00 6a 3d
       -0.24902344 -0.06640625 -0.107910156 0.057128906
000280 00 00 84 be 00 00 b7 3c 00 00 9d 3e 00 00 2a 3e
       -0.2578125 0.022338867 0.30664062 0.16601562
000290 00 00 73 3e 00 00 65 bc 00 00 d0 bd 00 00 f2 3c
       0.23730469 -0.013977051 -0.1015625 0.029541016
0002a0 00 00 45 be 00 00 dd 3c 00 00 42 bd 00 00 1a 3d
       -0.19238281 0.026977539 -0.04736328 0.037597656
0002b0 00 00 dd 3d 00 00 5a be 00 00 8a bd 00 00 db bd
       0.107910156 -0.21289062 -0.06738281 -0.106933594
0002c0 00 00 c7 bd 00 00 6f 3d 00 00 8b be 00 00 5d 3c
       -0.09716797 0.05834961 -0.27148438 0.0134887695
0002d0 00 00 93 3d 00 00 77 bd 00 00 79 be 00 00 16 be
       0.071777344 -0.060302734 -0.24316406 -0.14648438
0002e0 00 00 8e 3b 00 00 a3 3e 00 00 ed bd 00 00 8d 3c
       0.004333496 0.31835938 -0.115722656 0.017211914
0002f0 00 00 82 bd 00 00 41 3e 00 00 3e 3e 00 00 39 bc
       -0.06347656 0.18847656 0.18554688 -0.011291504
000300 00 00 b3 3a 00 00 ee bd 00 00 e8 bd 00 00 17 3e
       0.0013656616 -0.11621094 -0.11328125 0.14746094
000310 00 00 64 be 00 00 f1 bd 00 00 16 3e 00 00 2c bd
       -0.22265625 -0.11767578 0.14648438 -0.041992188
000320 00 00 fb 3b 00 00 0f 3e 00 00 6e be 00 00 21 3e
       0.007659912 0.13964844 -0.23242188 0.15722656
000330 00 00 04 3e 00 00 ec 3c 00 00 97 bd 00 00 ab bb
       0.12890625 0.028808594 -0.07373047 -0.005218506
000340 00 00 23 39 00 00 52 3e 00 00 81 be 00 00 84 bd
       0.00015544891 0.20507812 -0.25195312 -0.064453125
000350 00 00 35 3e 00 00 37 3e 00 00 52 be 00 00 73 bc
       0.17675781 0.17871094 -0.20507812 -0.014831543
000360 00 00 18 3d 00 00 34 3c 00 00 bc 3c 00 00 d0 3d
       0.037109375 0.010986328 0.022949219 0.1015625
000370 00 00 6b be 00 00 af 3e 00 00 88 be 00 00 06 3c
       -0.22949219 0.34179688 -0.265625 0.008178711
000380 00 00 64 3e 00 00 ad be 00 00 5f bc 00 00 ae be
       0.22265625 -0.33789062 -0.01361084 -0.33984375
000390 00 00 14 3e 00 00 a6 3b 00 00 92 bd 00 00 96 bc
       0.14453125 0.005065918 -0.07128906 -0.018310547
0003a0 00 00 63 be 00 00 b8 3d 00 00 f7 3d 00 00 a8 bd
       -0.22167969 0.08984375 0.12060547 -0.08203125
0003b0 00 00 4d be 00 00 b5 bd 00 00 58 bd 00 00 90 be
       -0.20019531 -0.088378906 -0.052734375 -0.28125
0003c0 00 00 4f bd 00 00 c8 bd 00 00 0f be 00 00 9a bd
       -0.05053711 -0.09765625 -0.13964844 -0.07519531
0003d0 00 00 9a bd 00 00 8e be 00 00 a4 3c 00 00 b8 be
       -0.07519531 -0.27734375 0.020019531 -0.359375
0003e0 00 00 09 be 00 00 35 3e 00 00 99 bd 00 00 83 3e
       -0.13378906 0.17675781 -0.07470703 0.25585938
0003f0 00 00 93 bc 00 00 98 3e 00 00 3f 3d 00 00 b3 bd
       -0.017944336 0.296875 0.04663086 -0.087402344
