gensim_data_sets/weightless_weighty_A.npy (npy, 2480 bytes, 1 tensors)

array f4 [2, 300]
000000 00 00 73 3d 00 00 48 be 00 00 19 be 00 00 5d be
       0.059326172 -0.1953125 -0.14941406 -0.21582031
000010 00 00 33 be 00 00 b7 3c 00 00 92 3e 00 00 17 bd
       -0.17480469 0.022338867 0.28515625 -0.036865234
000020 00 00 71 3d 00 00 17 3d 00 00 ab be 00 00 54 3e
       0.05883789 0.036865234 -0.33398438 0.20703125
000030 00 00 3c be 00 00 b1 bc 00 00 b7 bc 00 00 85 3e
       -0.18359375 -0.021606445 -0.022338867 0.25976562
000040 00 00 94 3e 00 00 d5 3e 00 00 98 3e 00 00 ba 3c
       0.2890625 0.41601562 0.296875 0.022705078
000050 00 00 a7 bd 00 00 09 3d 00 00 ac be 00 00 cf 3e
       -0.08154297 0.033447266 -0.3359375 0.40429688
000060 00 00 27 be 00 00 d6 bd 00 00 d7 bb 00 00 8c 3c
       -0.16308594 -0.10449219 -0.0065612793 0.017089844
000070 00 00 ce 3d 00 00 84 be 00 00 00 bf 00 00 b8 be
       0.10058594 -0.2578125 -0.5 -0.359375
000080 00 00 43 3e 00 00 d0 3c 00 00 79 bd 00 00 4e be
       0.19042969 0.025390625 -0.060791016 -0.20117188
000090 00 00 29 be 00 00 96 bb 00 00 c0 bd 00 00 41 3d
       -0.16503906 -0.0045776367 -0.09375 0.04711914
0000a0 00 00 d1 3b 00 00 12 3e 00 00 1e 3f 00 00 5e 3e
       0.006378174 0.14257812 0.6171875 0.21679688
0000b0 00 00 06 be 00 00 de bd 00 00 54 3e 00 00 c4 3d
       -0.13085938 -0.10839844 0.20703125 0.095703125
0000c0 00 00 fb 3e 00 00 75 3e 00 00 19 3d 00 00 52 be
       0.49023438 0.23925781 0.037353516 -0.20507812
0000d0 00 00 83 3d 00 00 ff 3d 00 00 37 bd 00 00 89 be
       0.063964844 0.12451172 -0.044677734 -0.26757812
0000e0 00 00 20 3e 00 00 80 bd 00 00 e9 3c 00 00 d5 3d
       0.15625 -0.0625 0.028442383 0.104003906
0000f0 00 00 11 3e 00 00 b7 be 00 00 6c bd 00 00 76 be
       0.14160156 -0.35742188 -0.057617188 -0.24023438
000100 00 00 7f 3c 00 00 96 be 00 00 bb be 00 00 1a 3e
       0.015563965 -0.29296875 -0.36523438 0.15039062
000110 00 00 2e 3e 00 00 10 be 00 00 ad be 00 00 c4 be
       0.16992188 -0.140625 -0.33789062 -0.3828125
000120 00 00 82 be 00 00 f2 3d 00 00 e9 bd 00 00 b1 be
       -0.25390625 0.11816406 -0.11376953 -0.34570312
000130 00 00 5a 3e 00 00 8e bd 00 00 8d be 00 00 74 3b
       0.21289062 -0.06933594 -0.27539062 0.0037231445
000140 00 00 2c 3d 00 00 0c 3e 00 00 14 be 00 00 a8 be
       0.041992188 0.13671875 -0.14453125 -0.328125
000150 00 00 a8 3b 00 00 4c 3c 00 00 3e 3e 00 00 ac 3c
       0.005126953 0.012451172 0.18554688 0.020996094
000160 00 00 68 3e 00 00 aa 3e 00 00 24 be 00 00 21 be
       0.2265625 0.33203125 -0.16015625 -0.15722656
000170 00 00 13 be 00 00 68 3e 00 00 59 3e 00 00 f3 3d
       -0.14355469 0.2265625 0.21191406 0.118652344
000180 00 00 d8 3e 00 00 24 bd 00 00 97 3e 00 00 83 be
       0.421875 -0.040039062 0.29492188 -0.25585938
000190 00 00 15 3d 00 00 ef bd 00 00 f0 bd 00 00 37 be
       0.036376953 -0.11669922 -0.1171875 -0.17871094
0001a0 00 00 d7 be 00 00 15 3e 00 00 4d 3e 00 00 4b 3d
       -0.41992188 0.14550781 0.20019531 0.049560547
0001b0 00 00 a0 3d 00 00 04 bd 00 00 7b be 00 00 54 3e
       0.078125 -0.032226562 -0.24511719 0.20703125
0001c0 00 00 49 3e 00 00 86 3d 00 00 65 be 00 00 3b 3d
       0.19628906 0.06542969 -0.22363281 0.045654297
0001d0 00 00 cc 3c 00 00 b9 3e 00 00 4e 3d 00 00 a6 3d
       0.024902344 0.36132812 0.05029297 0.08105469
0001e0 00 00 eb be 00 00 a6 bd 00 00 9a 3e 00 00 16 be
       -0.45898438 -0.08105469 0.30078125 -0.14648438
0001f0 00 00 dc 3e 00 00 bb bd 00 00 08 be 00 00 13 3e
       0.4296875 -0.091308594 -0.1328125 0.14355469
000200 00 00 a1 3e 00 00 ac 3e 00 00 a3 be 00 00 b0 3e
       0.31445312 0.3359375 -0.31835938 0.34375
000210 00 00 b8 be 00 00 a1 3d 00 00 53 3b 00 00 14 3e
       -0.359375 0.07861328 0.0032196045 0.14453125
000220 00 00 b6 3d 00 00 10 3e 00 00 eb 3d 00 00 9f 3e
       0.08886719 0.140625 0.114746094 0.31054688
000230 00 00 69 3e 00 00 24 be 00 00 93 be 00 00 2c bd
       0.22753906 -0.16015625 -0.28710938 -0.041992188
000240 00 00 41 be 00 00 a4 3d 00 00 6e be 00 00 0b 3e
       -0.18847656 0.080078125 -0.23242188 0.13574219
000250 00 00 17 3d 00 00 85 be 00 00 a8 3e 00 00 ad be
       0.036865234 -0.25976562 0.328125 -0.33789062
000260 00 00 5f be 00 00 99 3e 00 00 09 3e 00 00 ad bd
       -0.21777344 0.29882812 0.13378906 -0.084472656
000270 00 00 4c be 00 00 cb be 00 00 1b be 00 00 41 3e
       -0.19921875 -0.39648438 -0.15136719 0.18847656
000280 00 00 e1 bd 00 00 63 be 00 00 c3 3c 00 00 0d 3f
       -0.10986328 -0.22167969 0.023803711 0.55078125
000290 00 00 c4 3e 00 00 09 be 00 00 25 be 00 00 5b 3e
       0.3828125 -0.13378906 -0.16113281 0.21386719
0002a0 00 00 a8 be 00 00 8a 3d 00 00 8b bc 00 00 a3 bd
       -0.328125 0.06738281 -0.016967773 -0.079589844
0002b0 00 00 5c be 00 00 be 3e 00 00 b2 be 00 00 95 be
       -0.21484375 0.37109375 -0.34765625 -0.29101562
0002c0 00 00 47 be 00 00 71 be 00 00 80 be 00 00 a5 be
       -0.19433594 -0.23535156 -0.25 -0.32226562
0002d0 00 00 8b bd 00 00 c1 3b 00 00 35 be 00 00 a6 bd
       -0.067871094 0.0058898926 -0.17675781 -0.08105469
0002e0 00 00 c7 3e 00 00 64 be 00 00 03 3e 00 00 78 bd
       0.38867188 -0.22265625 0.12792969 -0.060546875
0002f0 00 00 4b be 00 00 13 be 00 00 31 bd 00 00 16 bd
       -0.19824219 -0.14355469 -0.04321289 -0.036621094
000300 00 00 23 bd 00 00 52 3e 00 00 7e 3c 00 00 87 3e
       -0.039794922 0.20507812 0.01550293 0.26367188
000310 00 00 22 bd 00 00 61 bd 00 00 be be 00 00 be bd
       -0.03955078 -0.05493164 -0.37109375 -0.09277344
000320 00 00 9c 3e 00 00 c5 3e 00 00 80 be 00 00 1e be
       0.3046875 0.38476562 -0.25 -0.15429688
000330 00 00 f9 bd 00 00 89 bd 00 00 04 bd 00 00 5b be
       -0.12158203 -0.06689453 -0.032226562 -0.21386719
000340 00 00 1d bf 00 00 9d bd 00 00 80 be 00 00 0c 3e
       -0.61328125 -0.076660156 -0.25 0.13671875
000350 00 00 f2 3c 00 00 0b 3d 00 00 49 3e 00 00 0f be
       0.029541016 0.033935547 0.19628906 -0.13964844
000360 00 00 da 3d 00 00 1f 3e 00 00 eb 3d 00 00 1f be
       0.10644531 0.15527344 0.114746094 -0.15527344
000370 00 00 7c 3e 00 00 eb 3c 00 00 9d bd 00 00 53 bd
       0.24609375 0.028686523 -0.076660156 -0.051513672
000380 00 00 00 3f 00 00 33 3e 00 00 c2 bd 00 00 83 be
       0.5 0.17480469 -0.09472656 -0.25585938
000390 00 00 e1 bc 00 00 8e bc 00 00 20 3e 00 00 2b be
       -0.02746582 -0.017333984 0.15625 -0.16699219
0003a0 00 00 b3 3e 00 00 83 be 00 00 39 3f 00 00 30 3e
       0.34960938 -0.25585938 0.72265625 0.171875
0003b0 00 00 18 be 00 00 a5 bd 00 00 30 3e 00 00 84 3e
       -0.1484375 -0.080566406 0.171875 0.2578125
0003c0 00 00 83 3e 00 00 f1 3d 00 00 49 be 00 00 58 be
       0.25585938 0.11767578 -0.19628906 -0.2109375
0003d0 00 00 a5 bc 00 00 91 bd 00 00 c7 be 00 00 d9 be
       -0.020141602 -0.07080078 -0.38867188 -0.42382812
0003e0 00 00 50 be 00 00 1b be 00 00 59 3d 00 00 ca be
       -0.203125 -0.15136719 0.052978516 -0.39453125
0003f0 00 00 a4 3e 00 00 8e 3e 00 00 3d 3e 00 00 13 bf
       0.3203125 0.27734375 0.18457031 -0.57421875
