gensim_data_sets/weightier_weighty_S.npy (npy, 2480 bytes, 1 tensors)

array f4 [2, 300]
0.044433594 0.13769531 -0.19921875 0.13769531 0.12890625 -0.068359375 0.27539062 0.22265625
-0.17089844 0.23632812 -0.009765625 0.06933594 0.22070312 0.4140625 -0.0703125 0.022827148
0.20800781 0.14941406 0.1484375 -0.052978516 -0.08251953 -0.05834961 0.08642578 0.16894531
-0.19335938 -0.24414062 0.016357422 -0.11230469 0.07861328 0.14257812 0.028686523 0.1015625
0.003540039 -0.021484375 -0.032958984 -0.29296875 -0.014099121 0.17382812 0.37304688 0.046875
0.15527344 -0.234375 0.18847656 0.19140625 -0.118652344 0.16796875 0.125 0.06591797
0.18554688 -0.22363281 -0.12011719 0.004638672 -0.328125 -0.22265625 0.16796875 0.15136719
0.06982422 -0.2578125 0.25 -0.25195312 0.002960205 0.01965332 0.17773438 -0.14550781
0.095214844 -0.026977539 -0.2734375 -0.017822266 -0.10449219 0.25195312 0.26171875 0.08105469
0.16796875 0.09033203 -0.171875 -0.4296875 -0.01586914 0.296875 0.03540039 -0.22265625
-0.1796875 0.140625 -0.10644531 -0.08984375 -0.19921875 0.022216797 -0.1796875 -0.036621094
-0.060791016 0.21484375 0.25390625 -0.2734375 -0.052246094 0.056396484 -0.1484375 -0.23339844
0.30078125 0.17285156 -0.24023438 -0.07470703 0.024780273 -0.088378906 0.34179688 -0.26367188
-0.12695312 -0.27929688 0.03930664 -0.15039062 0.12890625 -0.076660156 0.32226562 0.14648438
0.056884766 0.22265625 0.1328125 0.13476562 0.37695312 0.052490234 0.36328125 0.34375
-0.29492188 0.03125 -0.36328125 -0.096191406 -0.21777344 0.056884766 0.115722656 0.057128906
-0.12695312 0.004119873 -0.051757812 0.015136719 -0.23828125 0.24609375 0.043945312 0.21582031
-0.07421875 0.015991211 0.20605469 -0.24511719 0.30273438 -0.06933594 -0.0625 -0.3203125
0.28515625 -0.36328125 -0.28710938 0.14941406 0.27148438 0.17578125 -0.110839844 -0.38867188
-0.25976562 0.115234375 -0.41015625 -0.19921875 -0.111816406 -0.20996094 0.060058594 0.2734375
0.0068359375 0.037597656 0.1484375 0.29882812 0.16015625 0.04638672 0.28320312 0.22460938
-0.16699219 0.030395508 -0.0119018555 -0.047607422 0.10205078 -0.13378906 -0.22851562 0.03515625
-0.18066406 -0.16503906 -0.25 0.125 -0.1171875 0.19921875 -0.18652344 -0.088378906
0.080566406 0.33789062 -0.22753906 0.119628906 -0.111816406 0.11621094 0.19335938 0.048583984
0.14941406 0.12695312 0.014038086 0.1796875 -0.26367188 0.08544922 0.25195312 -0.01953125
0.037841797 0.32226562 -0.44726562 0.23242188 0.008483887 -0.07470703 -0.20898438 -0.10449219
-0.12158203 0.421875 -0.083496094 -0.04711914 0.16308594 0.33007812 -0.18261719 -0.20410156
-0.00793457 -0.122558594 -0.019165039 0.037597656 -0.42773438 0.32226562 -0.22167969 0.09472656
0.19921875 -0.20703125 -0.31054688 -0.037109375 -0.05029297 0.12890625 -0.032714844 0.06347656
0.0035705566 0.41210938 0.21679688 -0.03515625 -0.110839844 -0.16699219 0.0013427734 -0.25390625
0.12109375 -0.08300781 -0.043945312 -0.23046875 0.080566406 0.08935547 0.033203125 -0.07763672
-0.15429688 0.15039062 -0.023925781 0.1640625 0.027709961 0.040527344 0.028686523 -0.099121094
00000000: 0000 363d 0000 0d3e 0000 4cbe 0000 0d3e
00000010: 0000 043e 0000 8cbd 0000 8d3e 0000 643e
00000020: 0000 2fbe 0000 723e 0000 20bc 0000 8e3d
00000030: 0000 623e 0000 d43e 0000 90bd 0000 bb3c
00000040: 0000 553e 0000 193e 0000 183e 0000 59bd
00000050: 0000 a9bd 0000 6fbd 0000 b13d 0000 2d3e
00000060: 0000 46be 0000 7abe 0000 863c 0000 e6bd
00000070: 0000 a13d 0000 123e 0000 eb3c 0000 d03d
00000080: 0000 683b 0000 b0bc 0000 07bd 0000 96be
00000090: 0000 67bc 0000 323e 0000 bf3e 0000 403d
000000a0: 0000 1f3e 0000 70be 0000 413e 0000 443e
000000b0: 0000 f3bd 0000 2c3e 0000 003e 0000 873d
000000c0: 0000 3e3e 0000 65be 0000 f6bd 0000 983b
000000d0: 0000 a8be 0000 64be 0000 2c3e 0000 1b3e
000000e0: 0000 8f3d 0000 84be 0000 803e 0000 81be
000000f0: 0000 423b 0000 a13c 0000 363e 0000 15be
00000100: 0000 c33d 0000 ddbc 0000 8cbe 0000 92bc
00000110: 0000 d6bd 0000 813e 0000 863e 0000 a63d
00000120: 0000 2c3e 0000 b93d 0000 30be 0000 dcbe
00000130: 0000 82bc 0000 983e 0000 113d 0000 64be
00000140: 0000 38be 0000 103e 0000 dabd 0000 b8bd
00000150: 0000 4cbe 0000 b63c 0000 38be 0000 16bd
00000160: 0000 79bd 0000 5c3e 0000 823e 0000 8cbe
00000170: 0000 56bd 0000 673d 0000 18be 0000 6fbe
00000180: 0000 9a3e 0000 313e 0000 76be 0000 99bd
00000190: 0000 cb3c 0000 b5bd 0000 af3e 0000 87be
000001a0: 0000 02be 0000 8fbe 0000 213d 0000 1abe
000001b0: 0000 043e 0000 9dbd 0000 a53e 0000 163e
000001c0: 0000 693d 0000 643e 0000 083e 0000 0a3e
000001d0: 0000 c13e 0000 573d 0000 ba3e 0000 b03e
000001e0: 0000 97be 0000 003d 0000 babe 0000 c5bd
000001f0: 0000 5fbe 0000 693d 0000 ed3d 0000 6a3d
00000200: 0000 02be 0000 873b 0000 54bd 0000 783c
00000210: 0000 74be 0000 7c3e 0000 343d 0000 5d3e
00000220: 0000 98bd 0000 833c 0000 533e 0000 7bbe
00000230: 0000 9b3e 0000 8ebd 0000 80bd 0000 a4be
00000240: 0000 923e 0000 babe 0000 93be 0000 193e
00000250: 0000 8b3e 0000 343e 0000 e3bd 0000 c7be
00000260: 0000 85be 0000 ec3d 0000 d2be 0000 4cbe
00000270: 0000 e5bd 0000 57be 0000 763d 0000 8c3e
00000280: 0000 e03b 0000 1a3d 0000 183e 0000 993e
00000290: 0000 243e 0000 3e3d 0000 913e 0000 663e
000002a0: 0000 2bbe 0000 f93c 0000 43bc 0000 43bd
000002b0: 0000 d13d 0000 09be 0000 6abe 0000 103d
000002c0: 0000 39be 0000 29be 0000 80be 0000 003e
000002d0: 0000 f0bd 0000 4c3e 0000 3fbe 0000 b5bd
000002e0: 0000 a53d 0000 ad3e 0000 69be 0000 f53d
000002f0: 0000 e5bd 0000 ee3d 0000 463e 0000 473d
00000300: 0000 193e 0000 023e 0000 663c 0000 383e
00000310: 0000 87be 0000 af3d 0000 813e 0000 a0bc
00000320: 0000 1b3d 0000 a53e 0000 e5be 0000 6e3e
00000330: 0000 0b3c 0000 99bd 0000 56be 0000 d6bd
00000340: 0000 f9bd 0000 d83e 0000 abbd 0000 41bd
00000350: 0000 273e 0000 a93e 0000 3bbe 0000 51be
00000360: 0000 02bc 0000 fbbd 0000 9dbc 0000 1a3d
00000370: 0000 dbbe 0000 a53e 0000 63be 0000 c23d
00000380: 0000 4c3e 0000 54be 0000 9fbe 0000 18bd
00000390: 0000 4ebd 0000 043e 0000 06bd 0000 823d
000003a0: 0000 6a3b 0000 d33e 0000 5e3e 0000 10bd
000003b0: 0000 e3bd 0000 2bbe 0000 b03a 0000 82be
000003c0: 0000 f83d 0000 aabd 0000 34bd 0000 6cbe
000003d0: 0000 a53d 0000 b73d 0000 083d 0000 9fbd
000003e0: 0000 1ebe 0000 1a3e 0000 c4bc 0000 283e
000003f0: 0000 e33c 0000 263d 0000 eb3c 0000 cbbd
