simlex_data_sets_glove/bias_opinion.npy (npy, 3280 bytes, 1 tensors)

array f8 [2, 200]
0.012038 -0.030705 -0.1522 -0.22452 0.39659 0.07287 -0.55327 -0.12111
0.033149 0.14379 0.96037 -0.10794 -0.17943 0.10413 0.50724 -0.0039176
0.0015199 0.041416 -0.064074 0.32116 0.64718 1.1468 -0.72942 0.15422
0.017054 0.30153 -0.47122 -0.68278 -0.12733 -0.55975 -0.17415 -0.19975
0.27136 0.67973 -0.20166 0.095407 0.12945 -0.68385 -0.21618 0.31523
1.3738 -0.35151 0.1074 1.2569 -0.037987 -0.04018 0.075937 0.085768
0.57674 -0.053097 -0.11461 0.43878 0.43641 0.289 -0.019204 -0.36622
0.48112 -0.64659 0.087725 0.2704 -0.97291 0.044295 0.18585 -0.22944
1.0641 0.52365 -0.14603 0.78433 0.35178 0.37966 0.10454 1.0258
-0.3839 -0.14141 0.064375 0.053393 0.18631 -0.35986 0.59461 -0.67924
-0.72098 -0.24086 0.40659 0.51759 0.45368 -0.23115 -0.18177 -0.43081
0.63249 -0.024315 0.73485 -0.071259 0.045719 0.62165 0.31366 0.048039
-0.18196 0.32428 -0.30444 -0.061192 -0.30437 0.059146 0.13845 0.60604
-0.17647 0.082208 0.17317 0.34979 -0.023671 -0.1821 0.02222 0.055338
0.18795 -0.4232 0.7482 0.44258 0.25296 -0.11787 -0.18125 -0.33259
-0.25298 0.54429 0.27815 0.52354 -0.45007 0.75811 -0.34539 0.4804
-0.62615 0.29093 -0.15172 -0.15191 0.30357 1.13 -0.63763 0.53541
-0.30645 -0.82841 -0.43 0.011831 -0.17378 -0.33371 0.29892 -0.79543
1.2827 -0.66424 0.084004 -0.56461 -0.31493 -0.087965 -0.124 0.65849
-0.06845 0.067432 0.45663 0.052611 0.048912 0.17215 0.10047 0.027286
0.49295 -0.67468 0.34228 0.011494 0.023237 -0.50943 0.80341 0.087423
0.20845 0.48647 0.018352 0.33036 -0.1993 -0.47143 -0.43656 -1.2138
-0.46266 0.74721 -0.36381 -0.079806 -0.099024 -0.051736 0.052226 0.43501
-0.049665 0.20643 -0.33623 -0.17041 0.5363 0.092138 -0.43596 -0.31551
0.49235 0.48526 -0.51521 -0.25208 0.84755 -0.47556 -0.36779 0.14644
-0.66093 0.64007 0.59006 -0.053764 0.22134 -0.31122 -0.58512 -0.093745
0.8873 -0.0072379 -0.1145 0.057117 -0.060193 0.025361 -0.051734 0.36762
0.26594 0.28361 -0.45974 -0.16714 0.5707 2.4914 -0.18722 0.77338
0.33559 0.41067 0.063659 0.022775 -0.095751 -0.071163 -0.65307 -0.11874
0.40195 -0.28721 -0.75961 0.28163 0.31994 -0.78112 0.3284 -0.047621
-0.0083276 -0.13593 -0.090809 -0.2789 -0.20471 -0.19978 0.16832 -0.37707
-0.24568 -0.2244 -0.13551 0.18834 0.13203 0.33998 0.18914 -0.39065
00000000: 0457 7902 61a7 883f c572 4bab 2171 9fbf
00000010: ecc0 3923 4a7b c3bf 3e22 a644 12bd ccbf
00000020: c4eb fa05 bb61 d93f 8109 dcba 9ba7 b23f
00000030: 1574 7b49 63b4 e1bf 8cf3 37a1 1001 bfbf
00000040: 124b cadd e7f8 a03f 9df4 bef1 b567 c23f
00000050: 96e7 c1dd 59bb ee3f 3524 eeb1 f4a1 bbbf
00000060: 81ec f5ee 8ff7 c6bf 9c50 8880 43a8 ba3f
00000070: 2523 6761 4f3b e03f a89a 0fbe e60b 70bf
00000080: aba1 c332 ece6 583f 0ff1 0f5b 7a34 a53f
00000090: 931e 8656 2767 b0bf 9222 32ac e28d d43f
000000a0: 4b02 d4d4 b2b5 e43f 45d8 f0f4 4a59 f23f
000000b0: d68b a19c 6857 e7bf afce 3120 7bbd c33f
000000c0: 1c5e 1091 9a76 913f 07d3 307c 444c d33f
000000d0: d526 4eee 7728 debf b79c 4b71 55d9 e5bf
000000e0: ea5b e674 594c c0bf b6f3 fdd4 78e9 e1bf
000000f0: 5f98 4c15 8c4a c6bf c520 b072 6891 c9bf
00000100: e752 5c55 f65d d13f c685 0321 59c0 e53f
00000110: 72a7 74b0 fecf c9bf 8f39 cfd8 976c b83f
00000120: 36cd 3b4e d191 c03f c3d3 2b65 19e2 e5bf
00000130: cf4e 0647 c9ab cbbf 06f5 2d73 ba2c d43f
00000140: b3ea 73b5 15fb f53f ace2 8dcc 237f d6bf
00000150: 7424 97ff 907e bb3f 787a a52c 431c f43f
00000160: 61a7 5835 0873 a3bf 5114 e813 7992 a4bf
00000170: 166d 8e73 9b70 b33f 8b17 0b43 e4f4 b53f
00000180: f870 c971 a774 e23f 670b 08ad 872f abbf
00000190: 4968 cbb9 1457 bdbf 69e3 88b5 f814 dc3f
000001a0: 596e 6935 24ee db3f e5d0 22db f97e d23f
000001b0: c03d cf9f 36aa 93bf 1c08 c902 2670 d7bf
000001c0: b4e5 5c8a abca de3f e275 fd82 ddb0 e4bf
000001d0: 4ca6 0a46 2575 b63f 58a8 35cd 3b4e d13f
000001e0: 8b71 fe26 1422 efbf 04ad c090 d5ad a63f
000001f0: b515 fbcb eec9 c73f 7576 3238 4a5e cdbf
00000200: 11c7 bab8 8d06 f13f e09c 11a5 bdc1 e03f
00000210: 8c10 1e6d 1cb1 c2bf 9ab1 683a 3b19 e93f
00000220: a4c2 d842 9083 d63f ea5b e674 594c d83f
00000230: fab3 1f29 22c3 ba3f efc9 c342 ad69 f03f
00000240: 36cd 3b4e d191 d8bf efe6 a90e b919 c2bf
00000250: 7b14 ae47 e17a b03f 1db0 abc9 5356 ab3f
00000260: 2979 758e 01d9 c73f 2bde c83c f207 d7bf
00000270: 65fc fb8c 0b07 e33f 3f52 4486 55bc e5bf
00000280: 183e 22a6 4412 e7bf 4d10 751f 80d4 cebf
00000290: 685c 3810 9205 da3f 8e92 57e7 1890 e03f
000002a0: 9b5a b6d6 1709 dd3f 1136 3cbd 5296 cdbf
000002b0: f86b b246 3d44 c7bf 6e8b 321b 6492 dbbf
000002c0: 5a81 21ab 5b3d e43f 677e 3507 08e6 98bf
000002d0: 32e6 ae25 e483 e73f a3b0 8ba2 073e b2bf
000002e0: f794 9c13 7b68 a73f 6ade 718a 8ee4 e33f
000002f0: 170e 8464 0113 d43f 6876 dd5b 9198 a83f
00000300: 7c0f 971c 774a c7bf e2cc afe6 00c1 d43f
00000310: 0708 e6e8 f17b d3bf edbc 8dcd 8e54 afbf
00000320: 978b f84e cc7a d3bf ebe0 606f 6248 ae3f
00000330: 29cb 10c7 bab8 c13f bf2b 82ff ad64 e33f
00000340: bbd0 5ca7 9196 c6bf 9c35 785f 950b b53f
00000350: 26fc 523f 6f2a c63f 17f1 9d98 f562 d63f
00000360: c157 74eb 353d 98bf 3b01 4d84 0d4f c7bf
00000370: 1bbb 44f5 d6c0 963f 90bc 7328 4355 ac3f
00000380: e63f a4df be0e c83f 68b3 ea73 b515 dbbf
00000390: 1ac0 5b20 41f1 e73f 8846 7710 3b53 dc3f
000003a0: e38d cc23 7f30 d03f 06f5 2d73 ba2c bebf
000003b0: 3333 3333 3333 c7bf 4581 3e91 2749 d5bf
000003c0: 70b1 a206 d330 d0bf 5f46 b1dc d26a e13f
000003d0: 3e79 58a8 35cd d13f 1bbb 44f5 d6c0 e03f
000003e0: 3d49 ba66 f2cd dcbf 6da8 18e7 6f42 e83f
000003f0: 5e63 97a8 de1a d6bf c9e5 3fa4 dfbe de3f
00000400: 287e 8cb9 6b09 e4bf ca37 dbdc 989e d23f
00000410: 5d16 139b 8f6b c3bf e0b9 f770 c971 c3bf
00000420: 76fd 82dd b06d d33f 14ae 47e1 7a14 f23f
00000430: f359 9e07 7767 e4bf 8b71 fe26 1422 e13f
00000440: 22fd f675 e09c d3bf 51bd 35b0 5582 eabf
00000450: 85eb 51b8 1e85 dbbf 2bbe a1f0 d93a 883f
00000460: e674 594c 6c3e c6bf 4148 1630 815b d5bf
00000470: 53b3 075a 8121 d33f a33b 889d 2974 e9bf
00000480: 6744 696f f085 f43f c53d 963e 7441 e5bf
00000490: f2b1 bb40 4981 b53f 6fd3 9ffd 4811 e2bf
000004a0: b9df a128 d027 d4bf db50 31ce df84 b6bf
000004b0: 5839 b4c8 76be bfbf fcc6 d79e 5912 e53f
000004c0: 6744 696f f085 b1bf f530 b43a 3943 b13f
000004d0: b6d6 1709 6d39 dd3f a5d8 d138 d4ef aa3f
000004e0: 368f c360 fe0a a93f b7d1 00de 0209 c63f
000004f0: 9ca7 3ae4 66b8 b93f d7fb 8d76 dcf0 9b3f
00000500: 780b 2428 7e8c df3f 2c7d e882 fa96 e5bf
00000510: d5ca 845f eae7 d53f 3e42 cd90 2a8a 873f
00000520: 0e86 3aac 70cb 973f b03d b324 404d e0bf
00000530: 84f0 68e3 88b5 e93f ae0f eb8d 5a61 b63f
00000540: 1ff4 6c56 7dae ca3f 350c 1f11 5322 df3f
00000550: d6c7 43df ddca 923f 1405 fa44 9e24 d53f
00000560: dfe0 0b93 a982 c9bf 249c 16bc e82b debf
00000570: ff78 af5a 99f0 dbbf 2428 7e8c b96b f3bf
00000580: 07b6 4ab0 389c ddbf 29d0 27f2 24e9 e73f
00000590: f14b fdbc a948 d7bf 9d4a 0680 2a6e b4bf
000005a0: 00e4 8409 a359 b9bf ff3c 0d18 247d aabf
000005b0: 7175 00c4 5dbd aa3f 9eb5 db2e 34d7 db3f
000005c0: 76fd 82dd b06d a9bf 5ce6 7459 4c6c ca3f
000005d0: f7c7 7bd5 ca84 d5bf 72a7 74b0 fecf c5bf
000005e0: 9a08 1b9e 5e29 e13f 6c06 b820 5b96 b73f
000005f0: 664e 97c5 c4e6 dbbf c5e6 e3da 5031 d4bf
00000600: dfe0 0b93 a982 df3f 3ca5 83f5 7f0e df3f
00000610: 224f 92ae 997c e0bf 8b71 fe26 1422 d0bf
00000620: 9031 772d 211f eb3f e449 d235 936f debf
00000630: 0bef 7211 df89 d7bf 3bc2 69c1 8bbe c23f
00000640: bc3f deab 5626 e5bf b3d2 a414 747b e43f
00000650: 36b0 5582 c5e1 e23f 6b7f 677b f486 abbf
00000660: 4df8 a57e de54 cc3f 971c 774a 07eb d3bf
00000670: 6189 0794 4db9 e2bf 72dc 291d acff b7bf
00000680: a2b4 37f8 c264 ec3f eae0 aafc 7ca5 7dbf
00000690: 1d5a 643b df4f bdbf 145d 177e 703e ad3f
000006a0: 0971 e5ec 9dd1 aebf ca1b 60e6 3bf8 993f
000006b0: 28ba 2efc e07c aabf d7c0 5609 1687 d73f
000006c0: f7af ac34 2905 d13f 4963 b48e aa26 d23f
000006d0: 3f6f 2a52 616c ddbf 863d edf0 d764 c5bf
000006e0: 6c78 7aa5 2c43 e23f 0309 8a1f 63ee 0340
000006f0: 821c 9430 d3f6 c7bf e42c ec69 87bf e83f
00000700: 4356 b77a 4e7a d53f 46b1 dcd2 6a48 da3f
00000710: a697 18cb f44b b03f c364 aa60 5452 973f
00000720: 062e 8f35 2383 b8bf 6a6c af05 bd37 b2bf
00000730: 84f5 7f0e f3e5 e4bf 4b1f baa0 be65 bebf
00000740: 0b24 287e 8cb9 d93f e162 450d a661 d2bf
00000750: addd 76a1 b94e e8bf 83a3 e4d5 3906 d23f
00000760: d2a9 2b9f e579 d43f 740c c85e effe e8bf
00000770: dc68 006f 8104 d53f 4ca4 349b c761 a8bf
00000780: 45bd 3b8d 0f0e 81bf bccb 457c 2766 c1bf
00000790: f6b5 2e35 423f b7bf 7dae b662 7fd9 d1bf
000007a0: 3203 95f1 ef33 cabf 6e8b 321b 6492 c9bf
000007b0: cfa0 a17f 828b c53f c45f 9335 ea21 d8bf
000007c0: fc00 a436 7172 cfbf 9a77 9ca2 23b9 ccbf
000007d0: 7ff6 2345 6458 c1bf 7aaa 436e 861b c83f
000007e0: f5a1 0bea 5be6 c03f 35d2 5279 3bc2 d53f
000007f0: bdc6 2e51 bd35 c83f 71ac 8bdb 6800 d9bf
