simlex_data_sets_skipgram/bias_opinion.npy (npy, 2480 bytes, 1 tensors)

array f4 [2, 300]
00000000: 10cc f1be de59 abbe 3272 d6bd ce70 d33e
00000010: b9fd 92bd 450d a6bc 55de 6ebe 7637 9fbe
00000020: 0bee 87bd f4a6 023e 7daf a1bd 096d f93d
00000030: 46ce b2be 2041 71be 87a2 483f 1006 aebe
00000040: 520f 11be 5019 ffbd 3199 ba3e 3108 8c3e
00000050: bfb6 7ebd 12f7 c83e 849e 4dbe ca89 a6be
00000060: 137e 893d 2b86 8b3d b0fe 9f3e d8f2 cabc
00000070: 0265 533e feef a83d e606 c3bd 234c 113d
00000080: 31eb d5be 1092 653e b0d6 9a3b f224 e9bd
00000090: ad18 ae3c f12e b73e f65d 81be d74c 3e3e
000000a0: 2766 3dbd 1075 9fbe 12f7 98be 8885 1abe
000000b0: 9faa c23d f27b 8b3e e4a0 943e 3543 2a3c
000000c0: b8af 433e a089 30be bccb 05be 75cd 0cbf
000000d0: ec34 d2bd dc11 26bf a33b 88be 761a e9bd
000000e0: e78c e8bd a5f8 78bd f0a2 4fbe f914 003d
000000f0: 5019 ffbd 98fa 393e 2b88 a1bd 9678 20be
00000100: 224f 323e dfe0 9bbe f0a7 06be d521 173e
00000110: a110 813e e59b 6dbe 158c 0a3d 4018 38be
00000120: d995 16bc 07ce 593e ed2a b4be 11c7 aa3e
00000130: a9a3 633b ee41 a83d fe0e 25be b1dc 323e
00000140: 99f1 363b 556a 763e bd81 133c d6c5 bdbe
00000150: aaee 513d 81cf 2fbe f4fb 9e3d e718 10be
00000160: dd0c 17be 98dd d3bd 74b5 153e b3ef 12bf
00000170: ea3e 903e aa9a 90be 906b 43be 2618 cebc
00000180: 35b8 ad3c d976 5abd 59c1 2f3d 90a0 f83e
00000190: 5665 5f3e a7e8 083e afeb 773e a7af c7bd
000001a0: 4b8f 26bb 361f d73c 2a8c 6dbe 2158 d53c
000001b0: 7fa4 983e 3f3a 753e 5e85 14bd 0ea1 ca3e
000001c0: 705b bbbd 5c72 1cbd a818 873d 2f35 c2bc
000001d0: 7f4d 863e 45d4 443d f7e4 21be cfba 06bd
000001e0: 97ca 1bbe 33a7 2b3e 1d5a 443e 8ba5 083d
000001f0: f65d 713e d0ef 7bbd 3bfe ab3d cb4a 13be
00000200: a800 78be ba14 173e 849c 373d 2827 dabd
00000210: 7b31 54be 842a 35be d122 ab3e ae47 61bd
00000220: a14a 05bf 6761 8fbe 44a8 f23e e718 b03d
00000230: 0fd1 083e 950e e63e 4581 7e3d 03b2 87be
00000240: 22ab 1bbe c1ff 96be e71c 3cbd 2d5e ccbd
00000250: b81e 85be aa29 493d 529b d83e 5cc9 8ebe
00000260: 84bb 333e 40fb 51be 9851 0c3e 9357 f73e
00000270: 2fa4 033d 6c3d c33d 0490 aa3e 2788 aa3e
00000280: 0932 a23d bdc2 02bd d2fe 87bd 30f4 88bd
00000290: f8aa b53e 0b46 d53e 5bd3 3cbe 3be4 96be
000002a0: 6edd 0d3e 573e 4bbe 7fc1 aebe db50 b13e
000002b0: 2523 17bf ce37 a2bc cc46 873d 6614 cbbd
000002c0: 3354 85bd deab 563e 2c0e 87be b327 813c
000002d0: 374f 153e 8d29 983d 406a a33e 4a7b 0b3f
000002e0: 83dd 50be b9df a13e 448b 2c3e 08ac 7cbe
000002f0: 3c83 a63e d526 2e3e 3f1d 2fbf 26e4 63be
00000300: de69 3eba d593 993d 40fb 113e 7de8 a2be
00000310: d6e2 d33d d61d cbbd c72e 21bf 84d8 19be
00000320: 04e7 0c3e 8594 5fbe 446e 163f 876d 9b3e
00000330: 3f9c d13b 6c3e aebe 75e5 f3bd 2b88 81bc
00000340: 8929 d1bd 77bb 5e3d 0118 6f3e 58a8 853e
00000350: cac3 a23e 28b8 98be 732e 053d d881 73be
00000360: 97e3 b53d 8d0b f7be 1973 d7bd 527c 3c3d
00000370: edbb 02be eb39 c9bd 8cbe d2be 9f3c 6c3e
00000380: 5bb1 efbe 94bc 5a3e 74b5 b5be 33e1 373e
00000390: d6ad 1ebe 4ca6 6a3e 80f4 8dbd f2d3 b83c
000003a0: df15 913e f489 5c3e 4755 93bc 2c65 d93e
000003b0: f2ef a33e 8ae5 d6bd 64af 37be 438c 57bd
000003c0: 4b39 bfbd f489 1c3e 5070 513e 0261 67bd
000003d0: fc1b b43c a52c 033e b7b3 afbc a83a 643e
000003e0: 1765 763d 3b8e 9fbd 6dfd 943d 58cb 5d3d
000003f0: 912c 203e 38f3 2bbd e82f 74bd 8000 08bc
-0.47226 -0.33467 -0.10471 0.41297 -0.071773 -0.02027 -0.23327 -0.31097
-0.066372 0.12759 -0.078948 0.12179 -0.34923 -0.2356 0.78373 -0.33989
-0.14166 -0.12456 0.36445 0.2735 -0.062186 0.39251 -0.2008 -0.32527
0.067135 0.068127 0.31249 -0.024774 0.20644 0.082489 -0.095228 0.035473
-0.41781 0.22419 0.0047253 -0.11384 0.021252 0.35778 -0.25267 0.18584
-0.04624 -0.31144 -0.29876 -0.1509 0.095052 0.27243 0.29029 0.010392
0.1911 -0.1724 -0.13066 -0.55001 -0.10264 -0.64871 -0.26608 -0.11382
-0.11355 -0.060784 -0.20277 0.03127 -0.12456 0.18162 -0.078873 -0.15671
0.17413 -0.30445 -0.1315 0.14759 0.25208 -0.23204 0.033825 -0.17978
-0.009191 0.2127 -0.35189 0.33355 0.0034735 0.082157 -0.16119 0.17467
0.0027915 0.24064 0.0090031 -0.37065 0.051253 -0.17169 0.077629 -0.14072
-0.14751 -0.10345 0.1462 -0.57397 0.28173 -0.28243 -0.19084 -0.025158
0.021206 -0.053336 0.042909 0.4856 0.21816 0.1337 0.24211 -0.097503
-0.0025415 0.02626 -0.23198 0.026043 0.29813 0.23948 -0.03626 0.39576
-0.091483 -0.038195 0.065965 -0.023707 0.26231 0.048054 -0.1581 -0.032893
-0.15214 0.16763 0.19175 0.033361 0.23571 -0.061508 0.083981 -0.14384
-0.24219 0.14754 0.044827 -0.10652 -0.20722 -0.17692 0.33425 -0.055
-0.52067 -0.28004 0.47394 0.085985 0.13361 0.44933 0.062135 -0.26503
-0.15202 -0.29492 -0.045926 -0.099789 -0.26 0.049112 0.42306 -0.27888
0.17552 -0.20506 0.13703 0.48309 0.032139 0.095332 0.33313 0.33307
0.079197 -0.031924 -0.066404 -0.066872 0.35482 0.41655 -0.1844 -0.29471
0.13854 -0.19848 -0.34132 0.34632 -0.59038 -0.019802 0.066053 -0.09916
-0.065102 0.20964 -0.26378 0.015766 0.14581 0.074298 0.31917 0.54485
-0.20397 0.31616 0.1685 -0.24675 0.32522 0.17007 -0.68404 -0.22255
-0.00072637 0.074989 0.14256 -0.31818 0.10346 -0.099178 -0.62962 -0.15024
0.1376 -0.21834 0.58762 0.30357 0.0063968 -0.34032 -0.11909 -0.015812
-0.10213 0.054378 0.23349 0.26105 0.3179 -0.29828 0.032515 -0.2378
0.088813 -0.48251 -0.1052 0.046017 -0.12767 -0.098255 -0.41161 0.2307
-0.46815 0.21361 -0.3549 0.17957 -0.15496 0.22915 -0.069314 0.022562
0.28337 0.21537 -0.017985 0.4246 0.32019 -0.10493 -0.17938 -0.052624
-0.093371 0.15287 0.20453 -0.056489 0.021986 0.1281 -0.021448 0.22288
0.060155 -0.077908 0.072749 0.054149 0.15642 -0.04198 -0.059616 -0.0083009
