simlex_data_sets_gensim/bias_opinion.npy (npy, 2480 bytes, 1 tensors)

array f4 [2, 300]
-0.18164062 -0.040527344 0.07763672 -0.026245117 -0.25390625 0.04711914 -0.076171875 0.20019531
0.421875 -0.11816406 0.0013198853 0.07470703 0.18847656 0.17578125 -0.25585938 0.18652344
-0.28710938 -0.048339844 -0.067871094 -0.46679688 0.123535156 -0.05029297 0.13378906 0.080078125
-0.076660156 -0.07763672 -0.17675781 0.25 0.13085938 0.2890625 0.20703125 -0.104003906
0.10839844 -0.07421875 0.057128906 0.095214844 0.09326172 0.118652344 0.14257812 -0.3046875
0.084472656 -0.14746094 -0.018920898 -0.08935547 -0.30664062 -0.031982422 -0.07080078 0.039794922
-0.23535156 -0.08935547 0.22070312 -0.265625 -0.03491211 0.095703125 -0.13867188 -0.040283203
-0.08203125 -0.17480469 -0.10595703 -0.06933594 -0.1328125 0.20117188 0.13574219 -0.26757812
-0.005493164 -0.11425781 -0.22753906 0.33007812 0.09716797 0.30664062 -0.056640625 0.10253906
-0.11816406 -0.0075683594 -0.17089844 0.10546875 0.20019531 0.009338379 0.17578125 0.20019531
0.21191406 0.28125 0.092285156 -0.053955078 -0.10058594 -0.34765625 -0.22851562 0.359375
0.21191406 -0.018188477 0.05810547 0.026733398 -0.23632812 0.43164062 0.104003906 -0.041992188
0.043701172 0.3125 0.091796875 -0.026611328 0.30273438 0.0005378723 0.26171875 -0.19628906
0.15332031 -0.14160156 -0.1875 -0.068847656 0.19042969 -0.44726562 -0.32226562 -0.14355469
-0.18847656 -0.07470703 -0.083984375 -0.23242188 -0.20214844 0.001625061 -0.021484375 0.26953125
-0.08251953 0.31640625 0.10644531 0.45703125 -0.15332031 0.067871094 0.13574219 0.043701172
-0.15429688 -0.3203125 -0.28320312 -0.34375 0.09082031 0.16015625 0.17480469 0.017211914
0.23535156 0.21875 0.03540039 0.18261719 0.12011719 -0.2265625 0.021240234 0.26953125
-0.14160156 -0.18652344 -0.057861328 -0.08300781 0.19335938 0.11816406 0.072753906 -0.17285156
0.014770508 0.067871094 -0.092285156 -0.21386719 -0.3984375 -0.17773438 -0.31640625 -0.14453125
-0.23730469 -0.21972656 -0.052246094 -0.1484375 0.20898438 0.028320312 0.11669922 0.29882812
0.014221191 0.19042969 0.06542969 -0.10498047 -0.17480469 -0.003250122 0.10595703 0.006072998
-0.0050354004 -0.609375 0.27148438 0.09472656 -0.31054688 -0.19335938 -0.015625 0.16210938
-0.08154297 0.025268555 -0.19726562 -0.04711914 0.03466797 -0.095703125 0.24023438 0.049560547
0.095214844 0.080566406 -0.1796875 0.10498047 0.020141602 0.08154297 0.013061523 -0.03125
-0.17871094 0.119628906 -0.09765625 -0.25976562 -0.22460938 -0.049560547 0.14746094 0.07714844
0.24414062 0.10253906 -0.15722656 -0.03149414 0.09082031 0.20019531 -0.15527344 0.04736328
-0.29882812 -0.020141602 -0.17480469 -0.390625 -0.32421875 0.08886719 -0.119628906 -0.041748047
-0.37304688 -0.0016860962 0.43164062 0.01940918 -0.18945312 0.16699219 -0.104003906 -0.095214844
-0.03857422 0.07910156 -0.25 -0.29882812 -0.027954102 0.16601562 0.10205078 0.02709961
0.3125 -0.234375 0.29296875 -0.14355469 -0.12695312 0.31640625 -0.125 0.049560547
-0.040039062 0.071777344 0.28515625 0.026245117 -0.21679688 -0.29101562 -0.12451172 0.009643555
00000000: 0000 3abe 0000 26bd 0000 9f3d 0000 d7bc
00000010: 0000 82be 0000 413d 0000 9cbd 0000 4d3e
00000020: 0000 d83e 0000 f2bd 0000 ad3a 0000 993d
00000030: 0000 413e 0000 343e 0000 83be 0000 3f3e
00000040: 0000 93be 0000 46bd 0000 8bbd 0000 efbe
00000050: 0000 fd3d 0000 4ebd 0000 093e 0000 a43d
00000060: 0000 9dbd 0000 9fbd 0000 35be 0000 803e
00000070: 0000 063e 0000 943e 0000 543e 0000 d5bd
00000080: 0000 de3d 0000 98bd 0000 6a3d 0000 c33d
00000090: 0000 bf3d 0000 f33d 0000 123e 0000 9cbe
000000a0: 0000 ad3d 0000 17be 0000 9bbc 0000 b7bd
000000b0: 0000 9dbe 0000 03bd 0000 91bd 0000 233d
000000c0: 0000 71be 0000 b7bd 0000 623e 0000 88be
000000d0: 0000 0fbd 0000 c43d 0000 0ebe 0000 25bd
000000e0: 0000 a8bd 0000 33be 0000 d9bd 0000 8ebd
000000f0: 0000 08be 0000 4e3e 0000 0b3e 0000 89be
00000100: 0000 b4bb 0000 eabd 0000 69be 0000 a93e
00000110: 0000 c73d 0000 9d3e 0000 68bd 0000 d23d
00000120: 0000 f2bd 0000 f8bb 0000 2fbe 0000 d83d
00000130: 0000 4d3e 0000 193c 0000 343e 0000 4d3e
00000140: 0000 593e 0000 903e 0000 bd3d 0000 5dbd
00000150: 0000 cebd 0000 b2be 0000 6abe 0000 b83e
00000160: 0000 593e 0000 95bc 0000 6e3d 0000 db3c
00000170: 0000 72be 0000 dd3e 0000 d53d 0000 2cbd
00000180: 0000 333d 0000 a03e 0000 bc3d 0000 dabc
00000190: 0000 9b3e 0000 0d3a 0000 863e 0000 49be
000001a0: 0000 1d3e 0000 11be 0000 40be 0000 8dbd
000001b0: 0000 433e 0000 e5be 0000 a5be 0000 13be
000001c0: 0000 41be 0000 99bd 0000 acbd 0000 6ebe
000001d0: 0000 4fbe 0000 d53a 0000 b0bc 0000 8a3e
000001e0: 0000 a9bd 0000 a23e 0000 da3d 0000 ea3e
000001f0: 0000 1dbe 0000 8b3d 0000 0b3e 0000 333d
00000200: 0000 1ebe 0000 a4be 0000 91be 0000 b0be
00000210: 0000 ba3d 0000 243e 0000 333e 0000 8d3c
00000220: 0000 713e 0000 603e 0000 113d 0000 3b3e
00000230: 0000 f63d 0000 68be 0000 ae3c 0000 8a3e
00000240: 0000 11be 0000 3fbe 0000 6dbd 0000 aabd
00000250: 0000 463e 0000 f23d 0000 953d 0000 31be
00000260: 0000 723c 0000 8b3d 0000 bdbd 0000 5bbe
00000270: 0000 ccbe 0000 36be 0000 a2be 0000 14be
00000280: 0000 73be 0000 61be 0000 56bd 0000 18be
00000290: 0000 563e 0000 e83c 0000 ef3d 0000 993e
000002a0: 0000 693c 0000 433e 0000 863d 0000 d7bd
000002b0: 0000 33be 0000 55bb 0000 d93d 0000 c73b
000002c0: 0000 a5bb 0000 1cbf 0000 8b3e 0000 c23d
000002d0: 0000 9fbe 0000 46be 0000 80bc 0000 263e
000002e0: 0000 a7bd 0000 cf3c 0000 4abe 0000 41bd
000002f0: 0000 0e3d 0000 c4bd 0000 763e 0000 4b3d
00000300: 0000 c33d 0000 a53d 0000 38be 0000 d73d
00000310: 0000 a53c 0000 a73d 0000 563c 0000 00bd
00000320: 0000 37be 0000 f53d 0000 c8bd 0000 85be
00000330: 0000 66be 0000 4bbd 0000 173e 0000 9e3d
00000340: 0000 7a3e 0000 d23d 0000 21be 0000 01bd
00000350: 0000 ba3d 0000 4d3e 0000 1fbe 0000 423d
00000360: 0000 99be 0000 a5bc 0000 33be 0000 c8be
00000370: 0000 a6be 0000 b63d 0000 f5bd 0000 2bbd
00000380: 0000 bfbe 0000 ddba 0000 dd3e 0000 9f3c
00000390: 0000 42be 0000 2b3e 0000 d5bd 0000 c3bd
000003a0: 0000 1ebd 0000 a23d 0000 80be 0000 99be
000003b0: 0000 e5bc 0000 2a3e 0000 d13d 0000 de3c
000003c0: 0000 a03e 0000 70be 0000 963e 0000 13be
000003d0: 0000 02be 0000 a23e 0000 00be 0000 4b3d
000003e0: 0000 24bd 0000 933d 0000 923e 0000 d73c
000003f0: 0000 5ebe 0000 95be 0000 ffbd 0000 1e3c
