skipgram_data_sets/weightless_weighty_A.npy (npy, 2480 bytes, 1 tensors)

array f4 [2, 300]
0	0xbd95feda	-0.07324
1	0x3dfb3fa7	0.12268
2	0xbd6a8da8	-0.057264
3	0x3ed66ba5	0.41879
4	0xbd88405b	-0.066529
5	0xbcc55a7d	-0.024091
6	0xbdb21251	-0.086949
7	0x3e49d734	0.19711
8	0xbea40b78	-0.3204
9	0x3dd38477	0.10328
10	0x3e16d5d0	0.1473
11	0x3e856580	0.26054
12	0xbd2569b1	-0.040384
13	0x3e558106	0.2085
14	0x3e1dee78	0.15423
15	0x3e3890d6	0.18024
16	0x3e35ca6d	0.17753
17	0x3e1cb685	0.15304
18	0x3d8832ba	0.066503
19	0x3e50d5a6	0.20394
20	0x3dbd25ab	0.092357
21	0x3cb0d951	0.021588
22	0x3c6f1fde	0.014595
23	0x39fe4cf7	0.00048504
24	0xbe89fa98	-0.26949
25	0xbd3fad2a	-0.046796
26	0x3e06809d	0.13135
27	0x3df0a915	0.11751
28	0x3db02795	0.086013
29	0x3e107f24	0.14111
30	0xbd46b9c3	-0.048517
31	0x3ee23e18	0.44188
32	0x3e6d81ae	0.23194
33	0x3e6656ac	0.22494
34	0x3e026aa9	0.12736
35	0x3eb2b021	0.349
36	0x3f0e6666	0.55625
37	0xbe37ee4e	-0.17962
38	0x3dd56191	0.10419
39	0xbdbc5ac4	-0.09197
40	0x3d9e353f	0.07725
41	0x3e799c39	0.24376
42	0xbdafa483	-0.085763
43	0x3c3c2b95	0.011485
44	0xbe39ed7c	-0.18157
45	0x3dbb6028	0.091492
46	0xbd48b978	-0.049005
47	0xbc8f12c2	-0.017465
48	0x3c4929aa	0.012278
49	0x3e22c908	0.15897
50	0x3e0f598a	0.13999
51	0xbcdf6ba0	-0.027273
52	0x3e68ede5	0.22747
53	0xbecd7732	-0.4013
54	0x3eea137f	0.45718
55	0xbdb1fbc6	-0.086906
56	0x3ebee0f4	0.37281
57	0x3d5b4fe8	0.053543
58	0x3e12c519	0.14333
59	0xbd1b4678	-0.037909
60	0x3e7b035c	0.24513
61	0x3c9285a9	0.017886
62	0x3dfe61d0	0.12421
63	0xbe5f8ca8	-0.21831
64	0xbd87620f	-0.066105
65	0xbefaa79c	-0.48956
66	0xbddfaebc	-0.10922
67	0x3ebc1e79	0.36742
68	0x3d2b606b	0.04184
69	0xbce1eb42	-0.027578
70	0xbc833a47	-0.016019
71	0x3e94a622	0.29033
72	0x3defbd27	0.11706
73	0x3d6c58ef	0.057702
74	0xbdfadc0a	-0.12249
75	0x3da6a444	0.081368
76	0x3e536502	0.20644
77	0x3d26fa40	0.040766
78	0x3b6fbe69	0.0036582
79	0xbddcac08	-0.10775
80	0x3e8bc947	0.27302
81	0xbdf827fa	-0.12117
82	0x3d3f78bc	0.046746
83	0x3ea77857	0.32709
84	0xbec590c1	-0.38587
85	0x3dfa3ec0	0.12219
86	0x3e643fe6	0.2229
87	0x3eafd36f	0.34341
88	0x3f1b19a4	0.60586
89	0xbe82f599	-0.25578
90	0xbc978705	-0.018497
91	0x3dc6149c	0.096719
92	0x3eb49907	0.35273
93	0xbddd1f60	-0.10797
94	0x3ee95810	0.45575
95	0x3cf9a49c	0.030474
96	0x3e13eab3	0.14445
97	0x3c2011ee	0.0097699
98	0xbe383276	-0.17988
99	0x3e655087	0.22394
100	0xbdeeb702	-0.11656
101	0xbdfd60e9	-0.12372
102	0x3e5b1855	0.21396
103	0x3d414b5a	0.047191
104	0xbccef88c	-0.025265
105	0xbe3064ed	-0.17226
106	0xbe7fb939	-0.24973
107	0x3e55421c	0.20826
108	0xbd9af5ba	-0.075664
109	0xbd230121	-0.039796
110	0xbe1de15d	-0.15418
111	0x3bfa1c91	0.0076328
112	0xbcb1337f	-0.021631
113	0xbeb01cd6	-0.34397
114	0xbc9806f2	-0.018558
115	0xbea599ed	-0.32344
116	0x3d22cba7	0.039745
117	0x3ddc62a2	0.10761
118	0xbe1ad18d	-0.15119
119	0xbd454153	-0.048158
120	0xbcd03d9b	-0.02542
121	0xbbd09ab8	-0.0063661
122	0xbd8424a2	-0.064523
123	0x3f0ef007	0.55835
124	0x3e01e796	0.12686
125	0x3e5150db	0.20441
126	0x3d9fc5ce	0.078014
127	0x3e5bf488	0.2148
128	0xbdb1f57b	-0.086894
129	0x3dee147b	0.11625
130	0x3e45460b	0.19265
131	0x3e164d7f	0.14678
132	0xbd446845	-0.047951
133	0x3ce32c1f	0.027731
134	0x3ebd590c	0.36982
135	0xbd23fee3	-0.040038
136	0xbe91bc56	-0.28464
137	0xbd153cde	-0.036435
138	0xbdf85c68	-0.12127
139	0x3ecb72c5	0.39736
140	0x3e04a0e4	0.12952
141	0x3ebd60e9	0.36988
142	0xbdb2f449	-0.08738
143	0xbd985059	-0.074372
144	0xbea25edd	-0.31713
145	0xbec003ef	-0.37503
146	0xbe8f6d33	-0.28013
147	0xbdb40032	-0.087891
148	0x3e1721d5	0.14759
149	0xbe9410b6	-0.28919
150	0x3e26ad2e	0.16277
151	0x3d98e10d	0.074648
152	0x3da5e13b	0.080996
153	0xbccc985f	-0.024975
154	0xbe59e83e	-0.2128
155	0x3ddf8a09	0.10915
156	0xbe73eab3	-0.2382
157	0x3e16f7e4	0.14743
158	0xbf04a383	-0.51812
159	0xbd52fa0d	-0.051508
160	0xbe2ff434	-0.17183
161	0x3d6af35e	0.057361
162	0xbe3feb07	-0.18742
163	0x3e123a2a	0.1428
164	0x3dd7bc7f	0.10534
165	0x3e91b5c8	0.28459
166	0x3e546b27	0.20744
167	0xbe1fd0d0	-0.15607
168	0x3df49cf5	0.11944
169	0xbdc12dfd	-0.094326
170	0xbed95183	-0.42445
171	0xbe523f68	-0.20532
172	0xbcfe75bc	-0.031062
173	0x3e743e96	0.23852
174	0x3df38716	0.11891
175	0x3ef527e5	0.47882
176	0xbe85dcc6	-0.26145
177	0xbeac9321	-0.33706
178	0x3e7bc558	0.24587
179	0x3e09c23b	0.13453
180	0x3cf3eab3	0.029775
181	0x3d936695	0.071973
182	0x3ec9fe87	0.39452
183	0xbdcf80dc	-0.10132
184	0x3d2fed63	0.042951
185	0x3d28f6cf	0.041251
186	0x3db97dd0	0.090572
187	0x3d89f8c2	0.067369
188	0x3e3aee63	0.18255
189	0xbec4fb55	-0.38473
190	0xbe007896	-0.12546
191	0xbe80cdc8	-0.25157
192	0x3e8bab22	0.27279
193	0xbd1f3b64	-0.038875
194	0xbefeda66	-0.49776
195	0xbe7dcf03	-0.24786
196	0xbcc7991c	-0.024365
197	0x3e5234ec	0.20528
198	0xbe24894c	-0.16068
199	0xbeefe719	-0.46856
200	0x3db0cfe1	0.086334
201	0x3e4183f9	0.18898
202	0xbea8a090	-0.32935
203	0xbe6a8eb4	-0.22906
204	0x3d77d849	0.060509
205	0xbf090d5a	-0.53536
206	0xbebaaf79	-0.36462
207	0xbe67357e	-0.22579
208	0x3f224357	0.63384
209	0xbe13c0c2	-0.14429
210	0x3f4644fa	0.77449
211	0xbe80d307	-0.25161
212	0xbe2e075f	-0.16995
213	0xbdd8f712	-0.10594
214	0x3d3dbe3c	0.046324
215	0xbece742a	-0.40323
216	0xbd3d987c	-0.046288
217	0xbf284620	-0.65732
218	0xbd91c087	-0.071168
219	0x3dbaa9b5	0.091144
220	0xbeaa4bdc	-0.33261
221	0xbe01522a	-0.12629
222	0xbe820c4a	-0.254
223	0x3e8eb075	0.27869
224	0xbe2ba1f5	-0.16761
225	0x3df44e51	0.11929
226	0xbeaa3982	-0.33247
227	0xbe82339c	-0.2543
228	0x3c41871e	0.011812
229	0xbe0085b2	-0.12551
230	0x3d049dbf	0.032377
231	0x3e37689d	0.17911
232	0xbd95fdce	-0.073238
233	0x3de00d1b	0.1094
234	0x3c0889a7	0.0083336
235	0x3e7280f1	0.23682
236	0x3d1780bb	0.036988
237	0x3ea816f0	0.3283
238	0xbe87c1be	-0.26515
239	0xbe3d7dbf	-0.18505
240	0x3d45a815	0.048256
241	0x3f19b1d9	0.60037
242	0x3de7dfe3	0.11322
243	0xbc4a686e	-0.012354
244	0xbe97b203	-0.29628
245	0x3ab81733	0.0014045
246	0xbe09984a	-0.13437
247	0xbe3bd513	-0.18343
248	0xbdfd60e9	-0.12372
249	0xbdc4d984	-0.096118
250	0xbd3868fd	-0.045022
251	0xbe9187e8	-0.28424
252	0xbf0bc4b1	-0.54597
253	0x3e394318	0.18092
254	0x3ded288d	0.1158
255	0x3efed7c7	0.49774
