skipgram_data_sets/weighty_weightless_A.npy (npy, 2480 bytes, 1 tensors)

array f4 [2, 300]
000000 59 6b 88 3d ce c2 de bd 58 73 20 3e e6 5c 02 3f
       0.066611 -0.10877 0.15669 0.50923
000010 22 71 af 3e 71 38 33 3e 98 85 36 3d f9 4e bc be
       0.34266 0.17502 0.044561 -0.36779
000020 93 1a ba 3d 85 42 c4 3e c8 24 63 3e f0 f9 a1 3e
       0.090871 0.38332 0.22182 0.31636
000030 95 9a 7d be 53 b2 bc bd 71 03 fe 3d a1 84 b9 be
       -0.24766 -0.092137 0.12403 -0.36234
000040 94 a4 2b 3e 04 90 3a 3e a2 97 d1 3d 4e 62 80 3e
       0.16762 0.18219 0.10234 0.25075
000050 2f 18 1c bd 37 19 95 3d 17 2b 2a be be 65 f3 3b
       -0.038109 0.072802 -0.16618 0.0074279
000060 4b 02 74 3e a1 a3 d5 3c 42 76 de bc ba 30 52 3c
       0.23829 0.026079 -0.027156 0.012829
000070 c2 69 c1 3e 82 c4 96 3d 10 b2 ac 3d 34 4b b2 3e
       0.37776 0.073617 0.084324 0.34823
000080 50 fd 03 bc 1b 0d e0 3e 5d 6b 6f 3c 3a 5d 56 3e
       -0.008056 0.4376 0.014613 0.20934
000090 3f e3 c2 3c 9f 8e 27 be 1b 0f 96 bd 2d ec 29 be
       0.02379 -0.16363 -0.073271 -0.16594
0000a0 4f e5 b4 3d 7e a9 8f 3e 56 d4 90 3e e1 07 c7 bd
       0.088328 0.28059 0.28287 -0.097183
0000b0 e9 0e 22 3e 65 e4 6c 3e 88 9f 9f 3d ec 8a 19 bd
       0.15826 0.23134 0.077941 -0.037486
0000c0 11 c7 7a 3e df 15 c1 be ac 56 e6 bd 5d bf 40 be
       0.2449 -0.37712 -0.11247 -0.18823
0000d0 4d c0 af 3c 18 43 f9 bd 28 0a f4 3d ac 58 7c 3d
       0.021454 -0.12171 0.11916 0.061608
0000e0 26 fd 7d 3d 99 d3 e5 bd 0b 46 65 bd 62 2c b3 3d
       0.062009 -0.11222 -0.055975 0.087487
0000f0 ea 25 c6 3d 53 cb 96 3e 0b 46 85 3e 37 1a 40 3e
       0.096752 0.29452 0.2603 0.1876
000100 fe 0e 95 be c6 e1 8c be 9c 15 d1 bc 91 9b e1 3d
       -0.29113 -0.27516 -0.025523 0.11016
000110 95 f0 44 3d a3 ca 70 bd 74 07 91 bd a2 43 60 3d
       0.048081 -0.058787 -0.070815 0.054752
000120 4a 24 d1 bd e3 88 f5 3d 02 d4 b4 3e ee 0f ef ba
       -0.10212 0.11989 0.35318 -0.0018239
000130 f4 89 5c 3e 65 fc 3b 3e 01 c1 1c be 87 53 e6 bc
       0.21537 0.18358 -0.15308 -0.028116
000140 a8 e0 90 3d e7 00 b1 3e dc 64 d4 3c 1e 49 13 bc
       0.070741 0.34571 0.025927 -0.0089896
000150 1d e5 60 bd 22 ab ab 3e 1c e4 1a 3c ea 3e d0 3e
       -0.054906 0.33529 0.0094538 0.40673
000160 0b d3 97 3d 13 61 23 be 01 87 d0 bd 3f 74 21 be
       0.074133 -0.15955 -0.10182 -0.15767
000170 1a dd 01 3e 45 64 10 bf 95 66 b3 bd 9d da b9 3d
       0.12682 -0.56403 -0.087598 0.090749
000180 3c 83 26 3e b5 e0 05 3e e0 f3 03 be 6b d4 03 3e
       0.16261 0.13074 -0.12886 0.12874
000190 2f 88 88 3d 09 e1 71 be e9 48 09 bc 76 4f 5e 3e
       0.066666 -0.23621 -0.0083792 0.2171
0001a0 81 04 05 3e 4c c3 90 bd de 59 3b 3e cd e9 d2 3e
       0.1299 -0.070685 0.18296 0.41194
0001b0 77 5c 1e 3b c1 39 03 be 94 30 93 be b5 54 7e 3e
       0.0024164 -0.12815 -0.28748 0.24837
0001c0 d5 5b c3 be e5 b8 93 3d d3 bc 43 3e 49 0f c3 3d
       -0.38156 0.07213 0.19115 0.095244
0001d0 29 ae ea bd 06 2f 8a be 9c 69 c2 3d 26 c5 07 bd
       -0.11459 -0.26989 0.094928 -0.033147
0001e0 27 c2 46 be bb d0 1c be fd 86 09 bd bd a9 10 3f
       -0.1941 -0.15314 -0.033576 0.56509
0001f0 ed f0 57 be 48 a7 4e 3e cf 14 7a 3e 3d d5 01 3e
       -0.21088 0.20181 0.24422 0.12679
000200 7f 16 8b bd d4 f1 18 3e 20 41 b1 3d 31 23 3c 3d
       -0.067914 0.14936 0.08655 0.045932
000210 34 68 08 be 5c 38 80 be 8e 58 2b 3e 35 63 11 3e
       -0.13321 -0.25043 0.16733 0.14198
000220 c9 c8 39 be 7c 2c 5d be d0 8f d0 ba a1 69 89 bd
       -0.18143 -0.21599 -0.0015912 -0.067096
000230 90 88 a9 3d 67 b8 21 3e 3a 91 a0 3d cb d6 8a be
       0.08278 0.15793 0.078402 -0.27117
000240 e9 d5 40 bd 13 61 d3 be 91 27 99 be a8 df 05 3c
       -0.047079 -0.41285 -0.29913 0.008171
000250 e1 7f bb be ae bb 39 be 18 98 55 bd 35 29 45 be
       -0.36621 -0.18138 -0.052147 -0.19254
000260 52 0f 11 3e 50 36 e5 3c e0 f2 58 3d 7e ac a0 3d
       0.14166 0.02798 0.052966 0.078454
000270 1a 18 99 bd f3 71 2d be c8 b5 81 3e 8f 36 8e bc
       -0.074753 -0.16938 0.25334 -0.01736
000280 b2 f4 c1 be ab 21 a1 3e c3 47 c4 3d 87 6d 0b be
       -0.37882 0.31471 0.09584 -0.13616
000290 3c 6b 37 bd 1e dc 9d 3e 36 1f 97 3e 9e 41 b3 be
       -0.04478 0.30832 0.29516 -0.35011
0002a0 c9 ab 83 3e 98 4c d5 bd aa 82 f1 be 16 6c a3 bc
       0.25717 -0.10415 -0.4717 -0.019949
0002b0 83 69 d8 bd 54 70 78 bd f4 c0 47 3c eb 56 9f 3e
       -0.10567 -0.060654 0.012192 0.31121
0002c0 26 57 b1 bd 2d cf 43 3e 43 e2 de 3e 17 bc 98 be
       -0.086592 0.19122 0.43532 -0.29831
0002d0 3c 11 44 3c 37 71 32 3e 9f 93 5e 3d e7 c6 14 3e
       0.011967 0.17426 0.05434 0.14529
0002e0 63 ee 5a 3d 11 70 00 3f 8c be 82 3e ca 4f 0a be
       0.05345 0.50171 0.25536 -0.13507
0002f0 c3 b6 65 3e 07 f0 36 be 8b 33 86 bc 6d 90 49 be
       0.22433 -0.17865 -0.016382 -0.19684
000300 ee 25 6d 3e 29 07 b3 3c 2e ad 66 be 98 51 ec 3d
       0.23159 0.021854 -0.22527 0.11539
000310 95 9a 3d 3e d3 67 c7 bd 87 6d 4b be 91 b8 97 be
       0.18516 -0.097366 -0.19866 -0.29633
000320 4a ef db 3e d0 33 2c 3b c4 08 81 3e 50 c7 43 be
       0.42956 0.0026276 0.25202 -0.19119
000330 da 03 6d be d7 fa b2 be f1 2e e7 be a1 c0 96 3b
       -0.23146 -0.34957 -0.45153 0.0046006
000340 e9 d4 55 3e 82 57 cb 3c 5f 5e d0 3e c2 dd 39 3e
       0.20882 0.024822 0.40697 0.18151
000350 3b c7 c0 3d 7c 61 a2 be 24 b8 91 3d e5 d0 92 be
       0.09413 -0.31715 0.071152 -0.28675
000360 f2 5e 35 be e7 1d b7 be 92 1f b1 bd 4a 46 ae 3e
       -0.17712 -0.35765 -0.086486 0.34038
000370 77 a1 39 be 7f db b3 bd ce 70 93 be cb 2d 0d be
       -0.18128 -0.087821 -0.28797 -0.13787
000380 9b fe ec 3d 4a 0b 97 3c 4a d2 15 be f3 59 1e be
       0.11572 0.018438 -0.14631 -0.15464
000390 9e 97 aa bd 76 4f be bd 51 88 60 3e 0c 59 ad 3e
       -0.083297 -0.092925 0.21927 0.33857
0003a0 36 cc 50 3d ad c0 10 be 25 cc f4 bd ac 56 66 3e
       0.050976 -0.14136 -0.11953 0.22494
0003b0 9c 6d 8e 3e ff 3e 83 3d 27 a0 69 3e 6c 04 62 be
       0.27818 0.064085 0.22815 -0.22072
0003c0 1b 2f 3d be 71 72 af 3e 89 29 51 3e 03 cf ad 3e
       -0.18475 0.34267 0.20426 0.33947
0003d0 aa 48 d5 be ce c7 55 3e ca 15 5e 3e 77 87 94 3d
       -0.41657 0.20877 0.21688 0.072524
0003e0 b9 88 0f be 96 04 68 3e 80 9a 1a 3e 2f 34 d7 3d
       -0.14017 0.22658 0.15098 0.10508
0003f0 4e 7b aa bd 72 f8 a4 3c 66 3c 00 bc b1 dc 72 3e
       -0.083243 0.020138 -0.0078269 0.23717
