skipgram_data_sets/weightier_weightless_A.npy (npy, 2480 bytes, 1 tensors)

array f4 [2, 300]
0.026613 0.32401 -0.061238 0.36233 0.33772 0.16708 0.24402 -0.27316
0.1254 0.17329 0.04266 0.17976 -0.28761 0.033441 0.061875 -0.12006
0.082369 0.081196 0.17275 0.23065 0.28056 -0.21345 0.24435 -0.12935
0.062427 0.070552 0.14428 -0.024084 0.12179 0.011065 0.037409 0.26173
-0.23302 0.5221 0.10095 -0.016079 0.078797 0.10831 -0.25299 0.015157
-0.08705 0.094728 0.1276 -0.19344 0.18575 0.011627 -0.01669 -0.29363
0.36297 -0.46057 -0.037315 -0.20196 -0.067159 -0.16117 0.16019 0.24425
0.0027838 -0.051927 -0.079342 -0.0013817 0.0091096 0.21107 0.12435 0.26904
-0.18366 -0.10033 0.17838 0.0059737 -0.035932 -0.11816 -0.090715 0.1528
0.026395 0.19439 0.14974 -0.010511 0.30897 0.26888 -0.16059 0.096746
0.11223 0.37073 0.090157 0.14831 0.076606 0.2084 0.047215 0.40162
0.19714 -0.12763 -0.068505 -0.42066 0.075328 -0.54989 0.01544 -0.031917
0.17276 -0.027017 -0.20095 0.29771 0.1418 -0.11761 0.23236 0.12079
0.22673 -0.16692 0.012061 0.19655 -0.024813 0.12886 -0.30785 0.3524
-0.46876 0.12596 0.11909 0.21866 -0.024011 -0.2228 -0.0017369 -0.039444
-0.15596 -0.031607 -0.23152 0.36272 -0.28625 0.17429 0.25173 0.18725
-0.30243 -0.053719 0.28001 0.16274 0.11306 0.1132 0.18654 0.12526
-0.20409 -0.096415 -0.20784 0.022817 0.041174 -0.17506 -0.022935 -0.13509
-0.20182 -0.28537 0.059691 -0.068318 -0.11048 -0.26381 0.17506 -0.24568
0.26817 0.088558 0.13977 0.26541 -0.32253 0.081078 0.36414 0.35158
-0.059459 0.53474 0.11991 -0.06373 0.11679 0.55732 0.24216 -0.31157
0.22387 0.069468 -0.20229 -0.14635 -0.56834 -0.071377 0.036494 0.43059
-0.25343 0.30621 0.1005 -0.22272 0.0983 -0.072224 0.30851 0.064103
-0.043779 0.045178 -0.052796 0.043634 0.22316 -0.096853 0.030317 -0.32365
0.25879 -0.0062663 -0.5634 0.145 0.21666 0.050731 -0.28101 -0.30521
0.28144 0.10406 0.26935 -0.055859 -0.29564 -0.23589 -0.37072 -0.16794
0.27376 -0.3756 0.30114 0.072491 0.10875 -0.17309 0.22579 -0.21786
-0.10439 -0.33047 -0.035429 0.27736 -0.060421 -0.28715 -0.12783 -0.29365
-0.048006 0.094316 -0.16045 -0.20704 0.26122 -0.16585 0.20848 0.17166
0.22697 -0.055976 -0.046902 0.20971 0.26975 -0.15123 0.014411 -0.077498
-0.2519 0.35564 0.21318 0.11375 -0.13805 0.2264 0.042359 0.092704
-0.32833 0.13002 -0.0053478 -0.1036 -0.19409 0.035964 0.1372 0.38149
00000000: 8203 da3c a4e4 a53e b2d4 7abd 5183 b93e
00000010: a3e9 ac3e 0517 2b3e 61e0 793e a1db 8bbe
00000020: dc68 003e ef72 313e 41bc 2e3d 0113 383e
00000030: 9e41 93be 6ef9 083d a470 7d3d 04e2 f5bd
00000040: 14b1 a83d 174a a63d 60e5 303e 832f 6c3e
00000050: 8fa5 8f3e a392 5abe e336 7a3e 5474 04be
00000060: 74b3 7f3d 917d 903d 23be 133e cf4b c5bc
00000070: 096d f93d f949 353c 2e3a 193d 7901 863e
00000080: cb9c 6ebe 58a8 053f e0be ce3d 1bb8 83bc
00000090: 5260 a13d a2d1 dd3d e887 81be 1155 783c
000000a0: 4547 b2bd c100 c23d 93a9 023e 2315 46be
000000b0: 3f35 3e3e 2c7f 3e3c 78b9 88bc ac56 96be
000000c0: 34d7 b93e d5cf ebbe 9dd7 18bd 9ace 4ebe
000000d0: a88a 89bd c009 25be d908 243e ac1c 7a3e
000000e0: 6a70 363b 68b1 54bd 0f7e a2bd 291a b5ba
000000f0: 6f40 153c bc22 583e 36ab fe3d 9cbf 893e
00000100: 5e11 3cbe d179 cdbd 3fa9 363e 07bf c33b
00000110: 6f2d 13bd dffd f1bd c9c8 b9bd 9a77 1c3e
00000120: 543a d83c 2c0e 473e 7155 193e 5436 2cbc
00000130: 5131 9e3e a4aa 893e b471 24be c422 c63d
00000140: d8d8 e53d 53d0 bd3e 3ca4 b83d 94de 173e
00000150: 9be3 9c3d cf66 553e 8464 413d 23a1 cd3e
00000160: 11df 493e 70b1 02be 594c 8cbd bf60 d7be
00000170: 9145 9a3d 97c5 0cbf 0ef8 7c3c 66bb 02bd
00000180: ffe7 303e c152 ddbc d6c5 4dbe 726d 983e
00000190: 0534 113e 83dd f0bd c8ef 6d3e bf60 f73d
000001a0: e92b 683e 14ed 2abe 809b 453c 6744 493e
000001b0: a244 cbbc e0f3 033e 849e 9dbe c66d b43e
000001c0: 5001 f0be a9fb 003e 75e5 f33d 68e8 5f3e
000001d0: b7b2 c4bc af25 64be b1a8 e3ba 0890 21bd
000001e0: fab3 1fbe 5776 01bd 9413 6dbe 70b6 b93e
000001f0: 5c8f 92be 1479 323e c1e2 803e 77be 3f3e
00000200: 1bd8 9abe 7408 5cbd 795d 8f3e 51a5 263e
00000210: 008c e73d 67d5 e73d 5704 3f3e 2844 003e
00000220: f8fc 50be 3a75 c5bd 02d4 54be b8ea ba3c
00000230: 11a6 283d ee42 33be 2ee2 bbbc 0855 0abe
00000240: e7a9 4ebe 041c 92be 8d7e 743d 4fea 8bbd
00000250: 5743 e2bd 1b12 87be ee42 333e 8a93 7bbe
00000260: 944d 893e e65d b53d de1f 0f3e d2e3 873e
00000270: a722 a5be 390c a63d 8f70 ba3e 4b02 b43e
00000280: 488b 73bd b8e4 083f 6093 f53d e084 82bd
00000290: 982f ef3d 86ac 0e3f cbf8 773e 1a86 9fbe
000002a0: 2d3e 653e 3d45 8e3d 1c25 4fbe c6dc 15be
000002b0: bb7e 11bf 1b2e 92bd bc7a 153d 4b76 dc3e
000002c0: 94c1 81be 8fc7 9c3e f2d2 cd3d b610 64be
000002d0: 8351 c93d 2dea 93bd 06f5 9d3e 6f48 833d
000002e0: 9c51 33bd 910c 393d 9e40 58bd 91b9 323d
000002f0: 0e84 643e de5a c6bd 5b5b f83c 74b5 a5be
00000300: 1f80 843e 8955 cdbb fb3a 10bf e17a 143e
00000310: 1edc 5d3e 4fcb 4f3d 8be0 8fbe 7c44 9cbe
00000320: e718 903e 691d d53d 3ee8 893e 68cc 64bd
00000330: 205e 97be 268d 71be 03cf bdbe 77f8 2bbe
00000340: 452a 8c3e a54e c0be 062f 9a3e 2976 943d
00000350: 52b8 de3d 813e 31be 7e35 673e b116 5fbe
00000360: 6dca d5bd 5d33 a9be 001e 11bd 2102 8e3e
00000370: 037c 77bd 5305 93be dee5 02be 4b59 96be
00000380: f1a1 44bd bf28 c13d 014d 24be 4b02 54be
00000390: a1be 853e 95d4 29be c87b 553e a4c7 2f3e
000003a0: d36a 683e 1747 65bd 501c 40bd 38be 563e
000003b0: ac1c 8a3e 0adc 1abe 1d1c 6c3c 45b7 9ebd
000003c0: 09f9 80be 7216 b63e dc4b 5a3e c3f5 e83d
000003d0: fb5c 0dbe 67d5 673e a180 2d3d 98db bd3d
000003e0: df1a a8be f623 053e 993c afbb 3d2c d4bd
000003f0: 87bf 46be fd4e 133d 287e 0c3e a852 c33e
