glove_data_sets/weighty_weightless_A.npy (npy, 3280 bytes, 1 tensors)

array f8 [2, 200]
0	0x3fb10a7829068987	0.066566
1	0x3fbcd5f99c38b04b	0.11264
2	0x3fda0053e2d6238e	0.40627
3	0xbfd25aee631f8a09	-0.2868
4	0x3fd55cd0bb6ed677	0.33379
5	0xbfc24f227d028a1e	-0.14304
6	0xbfdcedbb59ddc1e8	-0.45201
7	0x3fd712c27a63736d	0.36052
8	0x3fc4da3c21187e7c	0.16291
9	0xbfcb3e0370cdc875	-0.21283
10	0xbfd9b0dd82fd75e2	-0.40142
11	0x3fcdf8f47304039b	0.23416
12	0x3fd6eac8605681ed	0.35808
13	0xbfd491a75cd0bb6f	-0.32139
14	0x3fdc6594af4f0d84	0.4437
15	0x3fc28e60807357e6	0.14497
16	0xbfb8766c6de76428	-0.095557
17	0x3fcca915379fa97e	0.22391
18	0xbfdd522a6f3f52fc	-0.45814
19	0xbfcb8cfbfc6540cc	-0.21524
20	0x3fe5e7ab7564302b	0.68453
21	0xbfbb9b66f9335d25	-0.10784
22	0x3fc59c8c9320d994	0.16884
23	0x3fc0bd1244a6223e	0.13077
24	0xbfd3e81450efdc9c	-0.31104
25	0x3fc81205bc01a36e	0.18805
26	0xbfdbd441355475a3	-0.43483
27	0x3fc02949a5657fb7	0.12626
28	0xbfc77b9e060fe47a	-0.18346
29	0x3fe146dc5d638866	0.5399
30	0x3fba2db61bb05faf	0.10226
31	0xbfddd1a21ea35936	-0.46592
32	0x3fc070b8cfbfc654	0.12844
33	0x3fdae368f08461fa	0.42013
34	0xbfd83c9eecbfb15b	-0.3787
35	0x3fcdfd8adab9f55a	0.2343
36	0xbfc5b089a0275254	-0.16945
37	0xbfb46b26bf8769ec	-0.07976
38	0xbfc4f66a55087011	-0.16377
39	0xbf9e23af31b152f4	-0.029433
40	0x3fca3ec02f2f9874	0.20504
41	0xbfd484dfce3150db	-0.32061
42	0x3fb2c12ad81adea9	0.07326
43	0xbfb835158b827fa2	-0.09456
44	0x3fc67a0f9096bb99	0.1756
45	0x3fcdb1d92b7fe08b	0.23199
46	0x3fcd984a0e410b63	0.23121
47	0x3fb78c21e1d2178f	0.091982
48	0xbfa57ecbb7f9d6f1	-0.041983
49	0x3fa1a975afaf8594	0.034496
50	0xbfad080b673c4f3c	-0.056702
51	0xbfc6501e2584f4c7	-0.17432
52	0x3f9807bbb62413db	0.023467
53	0x3fdd5350092ccf6c	0.45821
54	0x3fd1320d9945b6c3	0.26868
55	0x3fe1304039abf338	0.53714
56	0x3fe26d5cfaacd9e8	0.57585
57	0x3fdd89374bc6a7f0	0.4615
58	0x3fcc28f5c28f5c29	0.22
59	0x3fc540cc78e9f6a9	0.16604
60	0x3fd185729b280f13	0.27377
61	0x3fdfa9003eea209b	0.49469
62	0xbfd828f5c28f5c29	-0.3775
63	0xbfc92ec6bce8533b	-0.19674
64	0xbfd5ac9afe1da7b1	-0.33866
65	0x3fc867381d7dbf48	0.19065
66	0x3fe49aaa3ad18d26	0.64388
67	0x3fdb06a2b1704ff4	0.42228
68	0xbfcc87a8d64d7f0f	-0.22289
69	0xbfc5f1bef49cf56f	-0.17144
70	0x3fd586c226809d49	0.33635
71	0xbfbf2862f5989df1	-0.12171
72	0xbfe052007dd44135	-0.51001
73	0xbfd078c0053e2d62	-0.25737
74	0xbfd722a6f3f52fc2	-0.36149
75	0xbfe740e1719f7f8d	-0.72667
76	0xbfdc046c764adff8	-0.43777
77	0xbfe25f6fd21ff2e5	-0.57415
78	0x3fce98dcdb37c99b	0.23904
79	0xbfb67e1fc08fa7a8	-0.087862
80	0xbfc88b97785729b3	-0.19176
81	0xbfdb6f544bb1af3a	-0.42867
82	0xbfb72a497fa5d28d	-0.090489
83	0xbfe22da122fad6cb	-0.56807
84	0x3faa4c1ebc83a96d	0.051362
85	0x3fd1b05faebc408e	0.27639
86	0xbfc84a0e410b630b	-0.18976
87	0x3fcf3eff1950331e	0.24411
88	0x3fd3e5753a3ec02f	0.31088
89	0xbfe27160956c0d6f	-0.57634
90	0xbfc95421c044284e	-0.19788
91	0xbfeb33daf8df7a4e	-0.85008
92	0x3fd6b074a771c971	0.35452
93	0xbfb34f82f5126634	-0.075432
94	0x3fd5aacd9e83e426	0.33855
95	0xbfdab0f27bb2fec5	-0.41705
96	0x3fd709bf9c62a1b6	0.35997
97	0xbfd858255b035bd5	-0.38038
98	0xbfaa8ed5f138bce0	-0.051871
99	0xbfa87f023e9ea140	-0.047844
100	0x3fad4280ae104923	0.057148
101	0xbfcc52934acaff6d	-0.22127
102	0x3fe3fbfc6540cc79	0.62451
103	0xbfb1a6612839042e	-0.068945
104	0x3fa98d6909aed56b	0.049907
105	0x3fee0014f8b588e3	0.93751
106	0xbfe13e425aee6320	-0.53885
107	0xbfc10efdc9c4da90	-0.13327
108	0xbfc66e43aa79bbae	-0.17524
109	0x3fd4eb702602c908	0.32687
110	0xbfce5f84cad57bc8	-0.23729
111	0x3fd62aed1394317b	0.34637
112	0x3fd81355475a31a5	0.37618
113	0xbfd09bcfd4bf0996	-0.25951
114	0x3fe4089a02752546	0.62605
115	0x3fe1743e963dc487	0.54544
116	0xbfe7fb15b573eab3	-0.7494
117	0xbfc28bc169c23b79	-0.14489
118	0xbfaef7c243dccea3	-0.060484
119	0xbfd34f3775b81301	-0.30171
120	0x3fd7df6555c52e73	0.37301
121	0x3fdcc9320d9945b7	0.44978
122	0xbfd763b256ffc116	-0.36546
123	0xbfe1161e4f765fd9	-0.53395
124	0xbfd98b827fa1a0cf	-0.39914
125	0x3fda4d013a92a305	0.41095
126	0xbfd713165d3996fb	-0.36054
127	0xbfaf3d9ec7000432	-0.061017
128	0xbfe26277c45cbbc3	-0.57452
129	0x3fcec8b439581062	0.2405
130	0xbfeb04ea4a8c154d	-0.84435
131	0xbfd0f80dc33721d5	-0.26514
132	0xbfe65eb313be22e6	-0.69906
133	0xbfed6afcce1c5825	-0.91931
134	0x3fb10fe8ab4fa483	0.066649
135	0x3fdb4b48d3ae685e	0.42647
136	0x3fc0b5dcc63f1412	0.13055
137	0xbfc74c6e6d9be4cd	-0.18202
138	0x3fd79f7f8ca8198f	0.36911
139	0x3fb2b9e492bc2fc7	0.073149
140	0xbfe67c6fbd273d5c	-0.70269
141	0x3fb2559f6ec5b079	0.071619
142	0x3fd275f6fd21ff2e	0.28845
143	0x3fd657d1782d3847	0.34911
144	0x3fd1148fd9fd36f8	0.26688
145	0xbfea40a2877ee4e2	-0.82039
146	0x3fd7e425aee631f9	0.3733
147	0x3fc7367a0f9096bc	0.18135
148	0xbfc5ba5e353f7cee	-0.16975
149	0xbfdd05532617c1be	-0.45345
150	0x3fdadb61bb05faec	0.41964
151	0xbfd10fcf80dc3372	-0.26659
152	0xbfd2cc78e9f6a93f	-0.29373
153	0xbf78f960a98e0363	-0.0060972
154	0x3f971044f1a1986c	0.022523
155	0xbfd64c5974e65bea	-0.34841
156	0x3faa4b33daf8df7a	0.051355
157	0xbfaaa6b0d9513f8e	-0.052053
158	0x3fcaf5ec80c73abd	0.21063
159	0x3fdce4b87bdcf030	0.45146
160	0xbfb1ee78183f91e6	-0.070045
161	0xbfc4c63f141205bc	-0.1623
162	0x3fe5d29dc725c3df	0.68196
163	0xbfc3f4dbdf8f4730	-0.15591
164	0x3fa61e4f765fd8ae	0.0432
165	0xbfef2e33eff19503	-0.97439
166	0x3fbbc60029f16b12	0.10849
167	0xbfd14acaff6d3309	-0.27019
168	0xbfe3a68b19a415f4	-0.61408
169	0x3fd3e98dcdb37c9a	0.31113
170	0xbfd1d46b26bf876a	-0.27859
171	0x3fe050092ccf6be3	0.50977
172	0x3fb313165d3996fb	0.07451
173	0x3fae5f0f5a1016ce	0.059319
174	0xbfe1b280f12c27a6	-0.55304
175	0x3fde1719f7f8ca82	0.47016
176	0xbfca4f227d028a1e	-0.20554
177	0xbfbe0221426fe719	-0.11722
178	0x3fb3d028a1dfb939	0.077395
179	0xbfd0558644523f68	-0.25522
180	0xbfc69c23b7952d23	-0.17664
181	0xbfa066a11ec918e3	-0.032033
182	0xbfd1e963dc486ad3	-0.27987
183	0x3fb4df266ba493c9	0.08153
184	0x3fe504039abf3387	0.65674
185	0x3ff17318fc504817	1.0906
186	0x3fcfb00bcbe61d00	0.24756
187	0xbfa328f9f44d4456	-0.037422
188	0x3fc5d7dbf487fcb9	0.17065
189	0xbfc1566cf41f212d	-0.13545
190	0x3fc3e22e5de15ca7	0.15534
191	0xbfc8370cdc8754f3	-0.18918
192	0xbfd43126e978d4fe	-0.3155
193	0xbfc29ad42c3c9eed	-0.14535
194	0x3fee83f91e646f15	0.95361
195	0xbfe1663c74fb54a0	-0.54373
196	0xbfd39a415f45e0b5	-0.30629
197	0xbfcc8e368f084620	-0.22309
198	0xbfc2bfdb4cc25072	-0.14648
199	0xbfe0d590c0ad03da	-0.52607
200	0xbfd90c88a47ecfea	-0.39139
201	0x3fc4de2ac3222920	0.16303
202	0xbfe4cf56eac86057	-0.65031
203	0xbfd1e1da7b0b3919	-0.27941
204	0x3fe02046c764ae00	0.50394
205	0xbfdd4bc6a7ef9db2	-0.45775
206	0x3fd75b8130164841	0.36496
207	0xbfa5eb7457c0b136	-0.042812
208	0xbfb70caa326e1156	-0.090037
209	0x3fe3786c226809d5	0.60845
210	0x3fdf57bc7f77af64	0.48973
211	0x3fe89ffd60e94ee4	0.76953
212	0xbfd16e04c0592104	-0.27234
213	0x3fc473abc947064f	0.15978
214	0xbfe3c8f32378ab0d	-0.61828
215	0x3fb7b6134ce3de61	0.092622
216	0xbfe12c669057d178	-0.53667
217	0x3fec0ded288ce704	0.8767
218	0x3f74299d883ba344	0.0049225
219	0xbfd8d9be4cd74928	-0.38829
220	0xbf806a9676cf6a36	-0.0080158
221	0xbf9d940789613d32	-0.028885
222	0x3fd889a027525461	0.3834
223	0x3fbc5ac471b47842	0.11076
224	0xbfb73c1ce6c093d9	-0.090761
225	0xbfeb72324c836651	-0.85769
226	0x3fcf3387160956c1	0.24376
227	0xbfdd121ab4b72c52	-0.45423
228	0xbfe9c9eecbfb15b5	-0.8059
229	0x3fdfc2e33eff1950	0.49627
230	0x3fd5aa25d8d79d0a	0.33851
231	0xbfe1295e9e1b089a	-0.5363
232	0xbf9b6b2af145521a	-0.026776
233	0xbfc8c4ef88b97785	-0.19351
234	0x3fd0d1b71758e219	0.2628
235	0x3fd47620ee8d10f5	0.31971
236	0xbfd07bdcf0307f24	-0.25756
237	0x3fdd28b6d86ec17f	0.45561
238	0xbfa476af89c5e6ff	-0.039968
239	0x3fddc38b04ab606b	0.46506
240	0xbfafce52deca2553	-0.062121
241	0x3fe1d9be4cd74928	0.55783
242	0x3fddc4b09e98dcdb	0.46513
243	0xbfe2e978d4fdf3b6	-0.591
244	0x3fd5714b9cb6848c	0.33504
245	0xbfa4bd76ee73e682	-0.040508
246	0x3f914983d790752e	0.016882
247	0xbfc2cca2db61bb06	-0.14687
248	0xbfe3b9e060fe4799	-0.61644
249	0x3fbac669057d1783	0.10459
250	0x3fca6a550870110a	0.20637
251	0x3fe28a71de69ad43	0.5794
252	0x3fbb74bc6a7ef9db	0.10725
253	0x3f8a5ebb7739f341	0.012876
254	0xbfc59c8c9320d994	-0.16884
255	0x3fe6f16b11c6d1e1	0.71697
