glove_data_sets/weightless_weighty_A.npy (npy, 3280 bytes, 1 tensors)

array f8 [2, 200]
-0.39139 0.16303 -0.65031 -0.27941 0.50394 -0.45775 0.36496 -0.042812
-0.090037 0.60845 0.48973 0.76953 -0.27234 0.15978 -0.61828 0.092622
-0.53667 0.8767 0.0049225 -0.38829 -0.0080158 -0.028885 0.3834 0.11076
-0.090761 -0.85769 0.24376 -0.45423 -0.8059 0.49627 0.33851 -0.5363
-0.026776 -0.19351 0.2628 0.31971 -0.25756 0.45561 -0.039968 0.46506
-0.062121 0.55783 0.46513 -0.591 0.33504 -0.040508 0.016882 -0.14687
-0.61644 0.10459 0.20637 0.5794 0.10725 0.012876 -0.16884 0.71697
0.059099 -0.80807 -0.49214 -0.73894 -0.25592 -0.7303 0.16409 0.055316
-0.32349 0.14526 -0.32971 -0.47502 -0.15318 0.17698 0.32091 0.10844
0.52614 0.37193 -0.17745 -0.37852 0.15577 -0.10091 -0.8479 0.45331
-0.72775 0.15184 0.29834 0.027925 0.51317 -0.2325 0.59798 0.44152
-0.037154 -0.39307 0.54749 -0.32131 -0.28206 0.019674 -0.14407 -0.22352
0.22788 -0.90794 0.51917 0.63846 -0.44124 0.38195 -0.18312 0.12758
-0.25016 -0.23889 0.17028 -0.64773 -0.43137 0.11714 -0.68465 0.032523
1.509 0.065598 0.010421 -0.042091 0.4629 -0.38592 -0.10244 0.034089
-0.5751 -0.34493 0.12049 -0.50597 -0.99917 -0.0044176 0.93947 0.034984
-0.35774 -0.016561 -0.5084 0.55879 0.22655 0.016967 0.5315 -0.25391
0.64797 -0.10887 0.7971 0.018293 0.27197 -0.6454 -0.60496 -0.12113
0.17956 -0.62906 -0.55843 0.78747 0.16195 0.57209 0.14249 -0.12796
0.36238 0.18863 -0.77001 -0.70805 0.7435 0.26648 0.24714 0.20111
-0.21927 -0.25268 0.47653 -0.12266 0.062428 -0.11767 -0.45386 0.87726
-0.52188 -0.18189 0.7585 0.44556 -0.037774 0.66818 -0.38154 0.3884
-0.071771 -0.17902 -0.23859 0.48764 0.0021911 0.012115 -0.19942 -0.23826
-0.070734 0.61876 0.028186 -0.14315 -0.037131 -0.13347 -0.31855 -0.56186
-0.27741 -0.19608 0.032332 -0.59135 -0.40201 -0.26483 -0.23309 0.17653
0.066566 0.11264 0.40627 -0.2868 0.33379 -0.14304 -0.45201 0.36052
0.16291 -0.21283 -0.40142 0.23416 0.35808 -0.32139 0.4437 0.14497
-0.095557 0.22391 -0.45814 -0.21524 0.68453 -0.10784 0.16884 0.13077
-0.31104 0.18805 -0.43483 0.12626 -0.18346 0.5399 0.10226 -0.46592
0.12844 0.42013 -0.3787 0.2343 -0.16945 -0.07976 -0.16377 -0.029433
0.20504 -0.32061 0.07326 -0.09456 0.1756 0.23199 0.23121 0.091982
-0.041983 0.034496 -0.056702 -0.17432 0.023467 0.45821 0.26868 0.53714
00000000: eacf 7ea4 880c d9bf 2029 22c3 2ade c43f
00000010: 5760 c8ea 56cf e4bf 1939 0b7b dae1 d1bf
00000020: 00ae 64c7 4620 e03f b29d efa7 c64b ddbf
00000030: 4148 1630 815b d73f 36b1 c057 74eb a5bf
00000040: 5611 6e32 aa0c b7bf d509 6822 6c78 e33f
00000050: 64af 777f bc57 df3f e44e e960 fd9f e83f
00000060: 0421 59c0 046e d1bf 4f06 47c9 ab73 c43f
00000070: 0dab 7823 f3c8 e3bf 61de e34c 13b6 b73f
00000080: 78d1 5790 662c e1bf 04e7 8c28 ed0d ec3f
00000090: 44a3 3b88 9d29 743f 2849 d74c bed9 d8bf
000000a0: 366a cf76 966a 80bf 323d 6189 0794 9dbf
000000b0: 6154 5227 a089 d83f 4278 b471 c45a bc3f
000000c0: d993 c0e6 1c3c b7bf 5166 834c 3272 ebbf
000000d0: c156 0916 8733 cf3f 522c b7b4 1a12 ddbf
000000e0: b515 fbcb eec9 e9bf 5019 ff3e e3c2 df3f
000000f0: 0a9d d7d8 25aa d53f 9a08 1b9e 5e29 e1bf
00000100: 1a52 45f1 2a6b 9bbf 8577 b988 efc4 c8bf
00000110: 19e2 5817 b7d1 d03f f510 8dee 2076 d43f
00000120: 247f 30f0 dc7b d0bf 7fc1 6ed8 b628 dd3f
00000130: ffe6 c589 af76 a4bf 6b60 ab04 8bc3 dd3f
00000140: 5325 cade 52ce afbf 2849 d74c bed9 e13f
00000150: dbdc 989e b0c4 dd3f b6f3 fdd4 78e9 e2bf
00000160: 8c84 b69c 4b71 d53f 82e6 73ee 76bd a4bf
00000170: 2e75 90d7 8349 913f 06bb 61db a2cc c2bf
00000180: 9947 fe60 e0b9 e3bf 8317 7d05 69c6 ba3f
00000190: 0a11 7008 556a ca3f 43ad 69de 718a e23f
000001a0: dbf9 7e6a bc74 bb3f 41f3 3977 bb5e 8a3f
000001b0: 94d9 2093 8c9c c5bf e1d1 c611 6bf1 e63f
000001c0: 1ede 7360 3942 ae3f 791e dc9d b5db e9bf
000001d0: 906b 43c5 387f dfbf 8599 b67f 65a5 e7bf
000001e0: c51b 9947 fe60 d0bf 029a 081b 9e5e e7bf
000001f0: c6e1 ccaf e600 c53f 4b1d e4f5 6052 ac3f
00000200: 8750 a566 0fb4 d4bf f25e b532 e197 c23f
00000210: 9981 caf8 f719 d5bf f489 3c49 ba66 debf
00000220: 255d 33f9 669b c3bf f3e5 05d8 47a7 c63f
00000230: 2766 bd18 ca89 d43f 8907 944d b9c2 bb3f
00000240: 12c2 a38d 23d6 e03f 92ae 997c b3cd d73f
00000250: f46c 567d aeb6 c6bf 6171 38f3 ab39 d8bf
00000260: 7155 d977 45f0 c33f 4ce0 d6dd 3cd5 b9bf
00000270: a7e8 482e ff21 ebbf dec8 3cf2 0703 dd3f
00000280: 7d3f 355e ba49 e7bf 01c1 1c3d 7e6f c33f
00000290: 47ac c5a7 0018 d33f 4694 f606 5f98 9c3f
000002a0: eb39 e97d e36b e03f c3f5 285c 8fc2 cdbf
000002b0: c22f f5f3 a622 e33f 36ea 211a dd41 dc3f
000002c0: 6dc7 d45d d905 a3bf 637a c212 0f28 d9bf
000002d0: a262 9cbf 0985 e13f 382d 78d1 5790 d4bf
000002e0: e89f e062 450d d2bf c975 53ca 6b25 943f
000002f0: 1bd8 2ac1 e270 c2bf ea3e 00a9 4d9c ccbf
00000300: 25cc b4fd 2b2b cd3f 205e d72f d80d edbf
00000310: e90e 6267 0a9d e03f aebb 79aa 436e e43f
00000320: 77f8 6bb2 463d dcbf c442 ad69 de71 d83f
00000330: aa2b 9fe5 7970 c7bf bfd4 cf9b 8a54 c03f
00000340: 6d1c b116 9f02 d0bf 4eb4 ab90 f293 cebf
00000350: 40d9 942b bccb c53f 276b d443 34ba e4bf
00000360: eb6e 9eea 909b dbbf 3eae 0d15 e3fc bd3f
00000370: d49a e61d a7e8 e5bf 5551 bcca daa6 a03f
00000380: be9f 1a2f dd24 f83f 9dd9 aed0 07cb b03f
00000390: f86d 88f1 9a57 853f 7270 e998 f38c a5bf
000003a0: aa60 5452 27a0 dd3f 17d4 b7cc e9b2 d8bf
000003b0: 9a5f cd01 8239 babf 1b83 4e08 1d74 a13f
000003c0: 48bf 7d1d 3867 e2bf a531 5a47 5513 d6bf
000003d0: f1ba 7ec1 6ed8 be3f 543a 58ff e730 e0bf
000003e0: 459e 245d 33f9 efbf e7cf 6d78 3018 72bf
000003f0: 0057 b263 2310 ee3f 2e3b c43f 6ce9 a13f
00000400: 8525 1e50 36e5 d6bf b264 8ee5 5df5 90bf
00000410: 302a a913 d044 e0bf 6f9e ea90 9be1 e13f
00000420: 8f53 7424 97ff cc3f cde6 7118 cc5f 913f
00000430: 355e ba49 0c02 e13f ab26 88ba 0f40 d0bf
00000440: 7940 d994 2bbc e43f 1ef9 8381 e7de bbbf
00000450: fd87 f4db d781 e93f 1fa0 fb72 66bb 923f
00000460: 478f dfdb f467 d13f 2cd4 9ae6 1da7 e4bf
00000470: cf6b ec12 d55b e3bf c381 902c 6002 bfbf
00000480: b2ba d573 d2fb c63f a818 e76f 4221 e4bf
00000490: 745e 6397 a8de e1bf 8998 1249 f432 e93f
000004a0: 5f29 cb10 c7ba c43f e6cb 0bb0 8f4e e23f
000004b0: b0e6 00c1 1c3d c23f c51b 9947 fe60 c0bf
000004c0: e15d 2ee2 3b31 d73f 85b1 8520 0725 c83f
000004d0: 87f9 f202 eca3 e8bf 7fd9 3d79 58a8 e6bf
000004e0: 986e 1283 c0ca e73f e76f 4221 020e d13f
000004f0: c347 c494 48a2 cf3f 0404 73f4 f8bd c93f
00000500: c538 7f13 0a11 ccbf 249c 16bc e82b d0bf
00000510: 3a06 64af 777f de3f 1101 8750 a566 bfbf
00000520: aa99 b514 90f6 af3f e466 b801 9f1f bebf
00000530: 959a 3dd0 0a0c ddbf c3d8 4290 8312 ec3f
00000540: a5f7 8daf 3db3 e0bf 9c16 bce8 2b48 c7bf
00000550: 1283 c0ca a145 e83f f9f7 1917 0e84 dc3f
00000560: a438 471d 1d57 a3bf c4eb fa05 bb61 e53f
00000570: ec69 87bf 266b d8bf b30c 71ac 8bdb d83f
00000580: 7e1c cd91 955f b2bf d23a aa9a 20ea c6bf
00000590: b589 93fb 1d8a cebf 132c 0e67 7e35 df3f
000005a0: fdd6 f3da 11f3 613f c80c 54c6 bfcf 883f
000005b0: 828b 1535 9886 c9bf 73f4 f8bd 4d7f cebf
000005c0: 8b1b b798 9f1b b2bf b055 82c5 e1cc e33f
000005d0: 33fa d170 cadc 9c3f 3411 363c bd52 c2bf
000005e0: bce6 559d d502 a3bf a1a1 7f82 8b15 c1bf
000005f0: de02 098a 1f63 d4bf 26c7 9dd2 c1fa e1bf
00000600: c555 65df 15c1 d1bf b728 b341 2619 c9bf
00000610: dc81 3ae5 d18d a03f ceaa cfd5 56ec e2bf
00000620: b48e aa26 88ba d9bf c2fa 3f87 f9f2 d0bf
00000630: 6727 83a3 e4d5 cdbf 0da6 61f8 8898 c63f
00000640: 8789 0629 780a b13f 4bb0 389c f9d5 bc3f
00000650: 8e23 d6e2 5300 da3f 098a 1f63 ee5a d2bf
00000660: 77d6 6ebb d05c d53f 1e8a 027d 224f c2bf
00000670: e8c1 dd59 bbed dcbf 6d73 637a c212 d73f
00000680: 7c7e 1821 3cda c43f 75c8 cd70 033e cbbf
00000690: e275 fd82 ddb0 d9bf 9b03 0473 f4f8 cd3f
000006a0: ed81 5660 c8ea d63f 6fbb d05c a791 d4bf
000006b0: 840d 4faf 9465 dc3f e657 7380 608e c23f
000006c0: 2864 e76d 6c76 b8bf 7ea9 9f37 15a9 cc3f
000006d0: fc52 3f6f 2a52 ddbf cc40 65fc fb8c cbbf
000006e0: 2b30 6475 abe7 e53f 255d 33f9 669b bbbf
000006f0: 94d9 2093 8c9c c53f 3e22 a644 12bd c03f
00000700: 9cdc ef50 14e8 d3bf 6ea3 01bc 0512 c83f
00000710: a375 5435 41d4 dbbf b77f 65a5 4929 c03f
00000720: 7ae4 0f06 9e7b c7bf 6688 635d dc46 e13f
00000730: af5f b01b b62d ba3f 3659 a31e a2d1 ddbf
00000740: 54c6 bfcf b870 c03f fa61 84f0 68e3 da3f
00000750: 5bb1 bfec 9e3c d8bf 5af5 b9da 8afd cd3f
00000760: 5452 27a0 89b0 c5bf ec69 87bf 266b b4bf
00000770: 1170 0855 6af6 c4bf f452 b131 af23 9ebf
00000780: 7498 2f2f c03e ca3f db50 31ce df84 d4bf
00000790: a9de 1ad8 2ac1 b23f a27f 828b 1535 b8bf
000007a0: 99bb 9690 0f7a c63f 8be0 7f2b d9b1 cd3f
000007b0: 630b 410e 4a98 cd3f 8f17 d2e1 218c b73f
000007c0: f1d6 f9b7 cb7e a5bf 9485 afaf 75a9 a13f
000007d0: 3c4f 3c67 0b08 adbf c7f4 8425 1e50 c6bf
000007e0: db13 24b6 bb07 983f 6ccf 2c09 5053 dd3f
000007f0: c3b6 4599 0d32 d13f 38f3 ab39 4030 e13f
