glove_data_sets/weightier_weightless_A.npy (npy, 3280 bytes, 1 tensors)

array f8 [2, 200]
000000 a1 80 ed 60 c4 3e a9 3f 92 ad 2e a7 04 c4 ac bf
       0.049307 -0.056183
000010 03 09 8a 1f 63 ee ca 3f 8f 36 8e 58 8b 4f c9 bf
       0.2104 -0.19774
000020 27 f7 3b 14 05 fa e5 3f 12 da 72 2e c5 55 d3 bf
       0.68677 -0.30211
000030 01 c1 1c 3d 7e 6f eb bf 1d 8f 19 a8 8c 7f d7 3f
       -0.85736 0.36716
000040 9b 56 0a 81 5c e2 98 3f 23 4a 7b 83 2f 4c d8 bf
       0.024301 -0.37965
000050 5a 81 21 ab 5b 3d c3 bf 2e e2 3b 31 eb c5 c0 bf
       -0.15031 -0.13104
000060 17 f1 9d 98 f5 62 dc 3f 4b 59 86 38 d6 c5 d3 bf
       0.44354 -0.30895
000070 78 d4 98 10 73 49 b9 3f 78 f0 13 07 d0 ef ab 3f
       0.098777 0.054564
000080 25 5d 33 f9 66 9b d9 3f 25 cc b4 fd 2b 2b d5 3f
       0.40011 0.33076
000090 09 33 6d ff ca 4a d3 3f 22 8e 75 71 1b 0d cc 3f
       0.30144 0.21915
0000a0 83 6e 2f 69 8c d6 b9 3f 9b 38 b9 df a1 28 e6 bf
       0.10093 -0.69246
0000b0 20 98 a3 c7 ef 6d da 3f 18 cf a0 a1 7f 82 cb 3f
       0.41296 0.21492
0000c0 2f db 4e 5b 23 82 a9 bf e3 fc 4d 28 44 c0 c1 3f
       -0.049821 0.13868
0000d0 10 e9 b7 af 03 e7 d4 3f 2e ad 86 c4 3d 96 ca bf
       0.3266 -0.20771
0000e0 24 48 a5 d8 d1 38 b8 bf 0e 32 c9 c8 59 d8 cf 3f
       -0.094617 0.24879
0000f0 c1 ca a1 45 b6 f3 d3 bf 75 3c 66 a0 32 fe e7 bf
       -0.31175 -0.74978
000100 f9 a2 3d 5e 48 87 b7 bf 65 c7 46 20 5e d7 e8 3f
       -0.091908 0.77629
000110 c6 8a 1a 4c c3 f0 db bf ef a6 00 bd 15 2e 80 bf
       -0.43657 -0.0079004
000120 24 0b 98 c0 ad bb d7 3f 09 1b 9e 5e 29 cb f1 3f
       0.37083 1.1121
000130 a1 2d e7 52 5c 55 e0 bf 38 f3 ab 39 40 30 d1 3f
       -0.51042 0.26857
000140 3f 74 41 7d cb 9c de bf 14 ed 2a a4 fc a4 ce bf
       -0.47832 -0.23941
000150 80 9f 71 e1 40 48 d4 bf 7e c3 44 83 14 3c a5 bf
       -0.31691 -0.041474
000160 5f 0a 0f 9a 5d f7 a6 bf 0f d1 e8 0e 62 67 ce 3f
       -0.044856 0.23753
000170 2f a3 58 6e 69 35 a4 bf 38 67 44 69 6f f0 c9 3f
       -0.03947 0.20265
000180 88 49 b8 90 47 70 b3 3f e1 61 da 37 f7 57 a7 bf
       0.075932 -0.045593
000190 de 93 87 85 5a d3 de bf 3e cb f3 e0 ee ac d9 3f
       -0.48165 0.40118
0001a0 3b df 4f 8d 97 6e d2 3f 77 f8 6b b2 46 3d da 3f
       0.288 0.40999
0001b0 d8 81 73 46 94 f6 d6 3f 81 d1 e5 cd e1 5a b9 3f
       0.3588 0.099043
0001c0 82 56 60 c8 ea 56 eb 3f 73 f4 f8 bd 4d 7f d8 3f
       0.85436 0.38277
0001d0 85 08 38 84 2a 35 bb bf b2 9d ef a7 c6 4b df 3f
       -0.10628 0.489
0001e0 14 d1 af ad 9f fe b3 3f 9c bf 09 85 08 38 c4 3f
       0.078104 0.15796
0001f0 5b 5f 24 b4 e5 5c d4 bf ba f7 70 c9 71 a7 b4 bf
       -0.31817 -0.08068
000200 29 05 dd 5e d2 18 cd bf 3b df 4f 8d 97 6e aa 3f
       -0.22732 0.051625
000210 5f 98 4c 15 8c 4a dc 3f 72 a7 74 b0 fe cf d3 3f
       0.44205 0.30957
000220 7d ae b6 62 7f d9 c1 3f d5 cf 9b 8a 54 18 e5 bf
       0.13945 -0.65922
000230 68 05 86 ac 6e f5 9c bf 43 ca 4f aa 7d 3a d6 3f
       -0.02828 0.34732
000240 2b a1 bb 24 ce 8a b0 3f 90 6a d8 ef 89 75 aa bf
       0.064618 -0.051678
000250 8e 07 5b ec f6 59 ad 3f 90 49 46 ce c2 9e e7 bf
       0.057327 -0.73813
000260 aa 9a 20 ea 3e 00 db bf 6d 39 97 e2 aa b2 cb bf
       -0.42189 -0.21639
000270 d3 30 7c 44 4c 89 c4 3f b0 fe cf 61 be bc c0 bf
       0.16044 -0.13076
000280 bb ed 42 73 9d 46 de 3f a8 3a e4 66 b8 01 c3 bf
       0.47306 -0.14849
000290 b9 df a1 28 d0 27 c6 3f 20 29 22 c3 2a de e2 bf
       0.17309 -0.58962
0002a0 07 99 64 e4 2c ec c5 3f 4d be d9 e6 c6 f4 d8 bf
       0.17127 -0.38994
0002b0 a5 83 f5 7f 0e f3 c5 3f ef 72 11 df 89 59 c7 3f
       0.17148 0.18242
0002c0 09 e1 d1 c6 11 6b d1 bf 5a 4b 01 69 ff 03 9c bf
       -0.27216 -0.027359
0002d0 3a 7a fc de a6 3f d5 bf 2f dd 24 06 81 95 eb bf
       -0.33201 -0.862
0002e0 b6 be 48 68 cb b9 dc 3f 45 d8 f0 f4 4a 59 d2 bf
       0.44884 -0.2867
0002f0 2a 00 c6 33 68 e8 ed 3f c9 e5 3f a4 df be b2 bf
       0.93462 -0.073225
000300 7a df f8 da 33 4b de 3f 20 0c 3c f7 1e 2e d3 bf
       0.47334 -0.29969
000310 d9 25 aa b7 06 b6 e0 bf c0 96 57 ae b7 cd b4 bf
       -0.52222 -0.081264
000320 8c f6 78 21 1d 1e a2 bf b4 e5 5c 8a ab ca 8e bf
       -0.035386 -0.015035
000330 5f 40 2f dc b9 30 b2 3f fa 43 33 4f ae 29 a8 3f
       0.071056 0.047193
000340 0b 7b da e1 af c9 da bf 46 ce c2 9e 76 f8 e7 3f
       -0.41856 0.74908
000350 55 a4 c2 d8 42 90 e9 bf 28 49 d7 4c be d9 ca bf
       -0.79886 -0.20977
000360 7d ae b6 62 7f d9 c1 3f e2 3b 31 eb c5 50 c6 bf
       0.13945 -0.17434
000370 53 05 a3 92 3a 01 c5 3f 77 be 9f 1a 2f dd a4 3f
       0.1641 0.04075
000380 0a 85 08 38 84 2a e1 3f 85 5f ea e7 4d 45 ba 3f
       0.53644 0.10262
000390 fc c6 d7 9e 59 12 e1 3f 81 21 ab 5b 3d 27 e5 3f
       0.53349 0.66104
0003a0 b8 e9 cf 7e a4 88 c0 bf 8b 37 32 8f fc c1 de bf
       -0.12917 -0.48059
0003b0 16 a3 ae b5 f7 a9 9a 3f 43 90 83 12 66 da d2 bf
       0.026039 -0.29458
0003c0 af 79 55 67 b5 c0 8e 3f 6e 4c 4f 58 e2 01 c5 3f
       0.015016 0.16412
0003d0 23 32 ac e2 8d cc d3 bf 46 42 5b ce a5 b8 e5 bf
       -0.30936 -0.67879
0003e0 3a cc 97 17 60 1f e6 bf 33 33 33 33 33 33 bb bf
       -0.69133 -0.10625
0003f0 25 7a 19 c5 72 4b d9 bf e2 e9 95 b2 0c 71 c8 3f
       -0.39523 0.19095
000400 5d f9 2c cf 83 bb e4 bf a4 8d 23 d6 e2 53 c4 bf
       -0.64789 -0.15881
000410 1d 3d 7e 6f d3 9f d7 bf 78 7a a5 2c 43 1c cb bf
       -0.36913 -0.2118
000420 98 2f 2f c0 3e 3a e6 bf 5e a2 7a 6b 60 ab e0 bf
       -0.69461 -0.52092
000430 bf f1 b5 67 96 04 cc 3f 8b e0 7f 2b d9 b1 e0 3f
       0.21889 0.52171
000440 08 c9 02 26 70 eb c2 3f 34 a2 b4 37 f8 c2 dc bf
       0.14781 -0.4494
000450 96 b2 0c 71 ac 8b df 3f 3c 31 eb c5 50 4e a4 bf
       0.4929 -0.03966
000460 35 ef 38 45 47 72 f0 bf f4 89 3c 49 ba 66 e9 bf
       -1.0279 -0.79379
000470 40 6a 13 27 f7 3b c0 3f 65 8d 7a 88 46 77 e0 3f
       0.12683 0.51456
000480 75 93 18 04 56 0e c1 bf bf 82 34 63 d1 74 e2 bf
       -0.13325 -0.57676
000490 09 16 87 33 bf 9a db 3f 34 49 2c 29 77 9f a3 bf
       0.43132 -0.038326
0004a0 11 c8 25 8e 3c 10 89 bf 4a 0c 02 2b 87 16 dd bf
       -0.012238 -0.4545
0004b0 ac a8 c1 34 0c 1f df bf aa f1 d2 4d 62 10 c8 bf
       -0.48627 -0.188
0004c0 60 1f 9d ba f2 59 d0 bf 23 84 47 1b 47 ac d3 3f
       -0.25549 0.30739
0004d0 b3 cd 8d e9 09 4b d6 bf e8 a4 f7 8d af 3d db bf
       -0.34833 -0.42564
0004e0 99 0d 32 c9 c8 59 a0 3f 7c 44 4c 89 24 7a d9 bf
       0.031935 -0.39808
0004f0 3e ae 0d 15 e3 fc d5 bf c8 ea 56 cf 49 ef e9 3f
       -0.34356 0.81046
000500 5d 33 f9 66 9b 1b df bf 4d 49 d6 e1 e8 2a 6d 3f
       -0.48606 0.0035605
000510 27 a0 89 b0 e1 e9 d3 3f 8b 54 18 5b 08 72 d4 bf
       0.31115 -0.31946
000520 80 d5 91 23 9d 81 a9 3f aa 2b 9f e5 79 70 e2 bf
       0.049817 -0.57623
000530 f4 fd d4 78 e9 26 cd 3f 85 ce 6b ec 12 d5 d5 bf
       0.22775 -0.34113
000540 e6 57 73 80 60 8e c6 bf 86 38 d6 c5 6d 34 d4 bf
       -0.17622 -0.3157
000550 9c a6 cf 0e b8 ae a8 bf fa 7e 6a bc 74 93 e7 3f
       -0.048208 0.73675
000560 89 ea ad 81 ad 12 d8 bf 55 c1 a8 a4 4e 40 d9 bf
       -0.37614 -0.39455
000570 89 d2 de e0 0b 93 e7 bf d8 d8 25 aa b7 06 c6 3f
       -0.7367 0.17208
000580 40 6c e9 d1 54 4f a6 3f 7b da e1 af c9 1a d9 3f
       0.043574 0.39226
000590 c7 10 00 1c 7b f6 b8 bf 76 37 4f 75 c8 cd d6 3f
       -0.097511 0.35631
0005a0 f3 71 6d a8 18 e7 c3 bf f4 a6 22 15 c6 16 c2 3f
       -0.15549 0.14132
0005b0 e3 aa b2 ef 8a e0 df bf 0c cd 75 1a 69 a9 c4 bf
       -0.49808 -0.16142
0005c0 65 c7 46 20 5e d7 e8 3f 1b 9e 5e 29 cb 10 eb 3f
       0.77629 0.8458
0005d0 fa b6 3f 9b 45 bd 4a bf 50 8c 2c 99 63 79 b3 bf
       -0.00081602 -0.076071
0005e0 05 34 11 36 3c bd da bf 3a 75 e5 b3 3c 0f d8 bf
       -0.4178 -0.37593
0005f0 28 49 d7 4c be d9 ca bf 37 c3 0d f8 fc 30 d0 3f
       -0.20977 0.25299
000600 d1 3f c1 c5 8a 1a da bf 6e 86 1b f0 f9 61 de 3f
       -0.40787 0.47473
000610 be 6a 65 c2 2f f5 db 3f 0c 93 a9 82 51 49 e5 bf
       0.43684 -0.6652
000620 74 07 b1 33 85 ce e1 bf b3 93 66 98 7f 99 64 3f
       -0.55646 0.0025146
000630 0a 65 e1 eb 6b 5d aa bf ac 73 0c c8 5e ef ca bf
       -0.051494 -0.21043
000640 ea cf 7e a4 88 0c d9 bf 20 29 22 c3 2a de c4 3f
       -0.39139 0.16303
000650 57 60 c8 ea 56 cf e4 bf 19 39 0b 7b da e1 d1 bf
       -0.65031 -0.27941
000660 00 ae 64 c7 46 20 e0 3f b2 9d ef a7 c6 4b dd bf
       0.50394 -0.45775
000670 41 48 16 30 81 5b d7 3f 36 b1 c0 57 74 eb a5 bf
       0.36496 -0.042812
000680 56 11 6e 32 aa 0c b7 bf d5 09 68 22 6c 78 e3 3f
       -0.090037 0.60845
000690 64 af 77 7f bc 57 df 3f e4 4e e9 60 fd 9f e8 3f
       0.48973 0.76953
0006a0 04 21 59 c0 04 6e d1 bf 4f 06 47 c9 ab 73 c4 3f
       -0.27234 0.15978
0006b0 0d ab 78 23 f3 c8 e3 bf 61 de e3 4c 13 b6 b7 3f
       -0.61828 0.092622
0006c0 78 d1 57 90 66 2c e1 bf 04 e7 8c 28 ed 0d ec 3f
       -0.53667 0.8767
0006d0 44 a3 3b 88 9d 29 74 3f 28 49 d7 4c be d9 d8 bf
       0.0049225 -0.38829
0006e0 36 6a cf 76 96 6a 80 bf 32 3d 61 89 07 94 9d bf
       -0.0080158 -0.028885
0006f0 61 54 52 27 a0 89 d8 3f 42 78 b4 71 c4 5a bc 3f
       0.3834 0.11076
000700 d9 93 c0 e6 1c 3c b7 bf 51 66 83 4c 32 72 eb bf
       -0.090761 -0.85769
000710 c1 56 09 16 87 33 cf 3f 52 2c b7 b4 1a 12 dd bf
       0.24376 -0.45423
000720 b5 15 fb cb ee c9 e9 bf 50 19 ff 3e e3 c2 df 3f
       -0.8059 0.49627
000730 0a 9d d7 d8 25 aa d5 3f 9a 08 1b 9e 5e 29 e1 bf
       0.33851 -0.5363
000740 1a 52 45 f1 2a 6b 9b bf 85 77 b9 88 ef c4 c8 bf
       -0.026776 -0.19351
000750 19 e2 58 17 b7 d1 d0 3f f5 10 8d ee 20 76 d4 3f
       0.2628 0.31971
000760 24 7f 30 f0 dc 7b d0 bf 7f c1 6e d8 b6 28 dd 3f
       -0.25756 0.45561
000770 ff e6 c5 89 af 76 a4 bf 6b 60 ab 04 8b c3 dd 3f
       -0.039968 0.46506
000780 53 25 ca de 52 ce af bf 28 49 d7 4c be d9 e1 3f
       -0.062121 0.55783
000790 db dc 98 9e b0 c4 dd 3f b6 f3 fd d4 78 e9 e2 bf
       0.46513 -0.591
0007a0 8c 84 b6 9c 4b 71 d5 3f 82 e6 73 ee 76 bd a4 bf
       0.33504 -0.040508
0007b0 2e 75 90 d7 83 49 91 3f 06 bb 61 db a2 cc c2 bf
       0.016882 -0.14687
0007c0 99 47 fe 60 e0 b9 e3 bf 83 17 7d 05 69 c6 ba 3f
       -0.61644 0.10459
0007d0 0a 11 70 08 55 6a ca 3f 43 ad 69 de 71 8a e2 3f
       0.20637 0.5794
0007e0 db f9 7e 6a bc 74 bb 3f 41 f3 39 77 bb 5e 8a 3f
       0.10725 0.012876
0007f0 94 d9 20 93 8c 9c c5 bf e1 d1 c6 11 6b f1 e6 3f
       -0.16884 0.71697
